pth/model.pth (torch, 816111 bytes, 77 tensors)

conv.weight f4 [16, 3, 3, 3]
-0.003908778 -0.17795484 -0.06476438 -0.15518597 -0.086249895 -0.114100434 -0.035315648 -0.14574425
-0.21913183 -0.22145684 -0.09153732 0.19894123 -0.20493504 -0.08529059 0.14968507 0.011041571
-0.22874336 0.00069443125 -0.16821086 0.08104837 0.11227066 -0.08461018 -0.29314515 0.09321309
0.09029223 -0.13550699 -0.116760686 -0.32884678 -0.3385077 -0.24514149 -0.2702842 -0.14624299
-0.046496157 0.23120117 0.12791836 0.20961861 -0.011486097 -0.14887047 -0.16501264 -0.2643141
-0.05616494 -0.0059125824 0.16800289 0.19665067 0.105742335 0.0099073425 -0.053635165 0.075160615
-0.2398469 -0.16714229 -0.19453305 0.16025625 0.20866081 -0.088881046 0.23043719 -0.012954255
0.004722609 0.29983923 0.027311094 0.1738892 0.32143226 0.0010242299 0.084966876 0.121791705
0.12742503 0.19732729 0.10773827 0.29370955 -0.017024456 0.201407 0.3124316 0.27041999
-0.016322969 -0.16688238 0.061819192 -0.2037163 -0.25997877 -0.26150435 0.080951706 -0.12322334
0.011364178 -0.048467662 0.085681856 0.15411948 -0.04708793 -0.058824785 -0.16779736 -0.5362963
-0.42290446 -0.52048147 0.07966823 0.1552487 0.14581299 -0.1229472 -0.03215256 -0.002467533
-0.10566337 -0.020856349 -0.02058658 0.25837252 0.11302729 -0.02294791 -0.06378132 0.24233219
0.21807142 -0.07305036 0.11434957 -0.021876886 -0.16430034 -0.0005998 0.081776984 -0.13103639
0.10971857 0.16310853 -0.2330263 -0.046224605 -0.00725138 -0.11449179 0.2114016 0.09713935
-0.27048534 0.08339438 0.35182124 -0.115720116 0.025333235 0.32079932 -0.23129429 0.1840101
0.12344378 -0.3498307 -0.13102826 0.11149242 -0.098716766 -0.015111672 0.22808969 0.041150678
0.30192477 0.37322718 -0.11523827 0.054708492 0.27643406 -0.30170363 -0.23711541 0.053544022
0.12000635 -0.0022849734 0.32409522 0.038334772 0.10203457 -0.07309933 -0.24482314 -0.3154157
-0.1144376 0.007978876 0.13183913 0.12514159 -0.1590632 0.038572263 0.3220862 -0.23588397
0.113166735 0.083293796 0.1534357 -0.021434588 -0.005107503 -0.08931378 -0.22971961 -0.01565348
-0.13300797 -0.1909681 -0.23612957 -0.036264587 0.050390776 0.23330432 0.14637864 -0.03787112
0.0069250166 -0.2446459 -0.24270377 -0.18798682 0.20312671 0.20972951 0.1292582 0.2362028
0.2112427 0.27910453 -0.041549686 -0.010960024 0.09921472 0.27670586 0.1451772 -0.291487
0.06539405 0.24223273 -0.056500066 0.122730814 -0.07775907 -0.09637502 0.00081795716 0.023455743
-0.4817528 -0.03218356 0.10836863 -0.23005489 0.3505712 -0.20461519 -0.24563684 0.32722995
-0.07360032 -0.21034823 0.09810487 -0.051001947 -0.27716604 0.17407864 -0.08449385 -0.08598192
0.061994385 0.20605311 0.320962 0.1821979 0.28422722 0.29349342 -0.18813694 -0.043042883
0.02683836 0.047399763 0.0760259 0.27153695 -0.017345602 -0.045002647 0.050841324 -0.33616346
-0.2802648 -0.11311695 0.019033102 0.1449653 -0.013169134 -0.10596039 -0.007138584 -0.14431424
-0.22845645 -0.2631621 -0.22621001 0.013948978 0.073457435 0.0647789 0.23943396 -0.07045972
-0.10208218 0.042375706 0.1655571 0.068664424 0.0388644 -0.030883795 -0.29296285 -0.22676355
00000000: 3515 80bb cb39 36be 30a3 84bd 12e9 1ebe
00000010: c9a3 b0bd 7dad e9bd 24a7 10bd fb3d 15be
00000020: 1864 60be 95c5 62be eb77 bbbd 40b7 4b3e
00000030: 7eda 51be d5ac aebd 0b47 193e b5e7 343c
00000040: b33b 6abe 7e0a 363a 783f 2cbe b0fc a53d
00000050: 29ee e53d 1a48 adbd 1f17 96be 81e6 be3d
00000060: 22eb b83d 58c2 0abe 3a20 efbd 9b5e a8be
00000070: e250 adbe 5f06 7bbe b162 8abe b9c0 15be
00000080: c172 3ebd 00c0 6c3e 08fd 023e 43a6 563e
00000090: 2f30 3cbc 8071 18be 13f9 28be 2d54 87be
000000a0: 350d 66bd 56be c1bb f308 2c3e cb5e 493e
000000b0: 708f d83d 6852 223c 8cb0 5bbd cfed 993d
000000c0: 6d9a 75be 5927 2bbe ac33 47be 371a 243e
000000d0: 2eab 553e 4407 b6bd baf7 6b3e 153e 54bc
000000e0: 1ec0 9a3b 8784 993e 84bb df3c 0310 323e
000000f0: c592 a43e 743f 863a 1d03 ae3d ee6d f93d
00000100: b57b 023e 2a10 4a3e e2a5 dc3d 1961 963e
00000110: df76 8bbc a33d 4e3e 09f7 9f3e 7d74 8a3e
00000120: bfb7 85bc 37e3 2abe 1f36 7d3d 019b 50be
00000130: f01b 85be e6e3 85be 02ca a53d 855c fcbd
00000140: d130 3a3c 0786 46bd f879 af3d 7fd1 1d3e
00000150: 46df 40bd 42f2 70bd 12d3 2bbe b74a 09bf
00000160: ef86 d8be 463e 05bf 1929 a33d 84f9 1e3e
00000170: 0050 153e becb fbbd 67b2 03bd 56b6 21bb
00000180: 0966 d8bd efda aabc 30a5 a8bc 6749 843e
00000190: da7a e73d 41fd bbbc c89f 82bd ee25 783e
000001a0: 1d4e 5f3e 6d9b 95bd 1b30 ea3d 2837 b3bc
000001b0: 593e 28be e63b 1dba b17a a73d 672e 06be
000001c0: 21b4 e03d ec05 273e 729e 6ebe 0356 3dbd
000001d0: fc9c edbb ac7a eabd a979 583e fff0 c63d
000001e0: 0e7d 8abe acca aa3d ea21 b43e abfe ecbd
000001f0: a587 cf3c cf3f a43e 69d8 6cbe 256d 3c3e
00000200: 18d0 fc3d 021d b3be 462c 06be 2356 e43d
00000210: 042c cabd f296 77bc 5890 693e 9d8d 283d
00000220: e295 9a3e a217 bf3e 0b02 ecbd 0316 603d
00000230: c488 8d3e e678 9abe 62ce 72be fa50 5b3d
00000240: e4c5 f53d 7ebf 15bb cfef a53e ec04 1d3d
00000250: 80f7 d03d 1ab5 95bd ebb2 7abe 2b7e a1be
00000260: 435e eabd d5b9 023c d600 073e 1e25 003e
00000270: 77e1 22be f3fd 1d3d 7be8 a43e 918b 71be
00000280: f6c3 e73d f095 aa3d 401e 1d3e 9797 afbc
00000290: d75c a7bb 25ea b6bd 9e3b 6bbe ba3b 80bc
000002a0: 3e33 08be 248d 43be f3cb 71be 2d8a 14bd
000002b0: 8f66 4e3d 54e7 6e3e 48e4 153e bf1e 1bbd
000002c0: 40eb e23b 7484 7abe 5687 78be 9e7f 40be
000002d0: 7300 503e 55c3 563e 435c 043e 26df 713e
000002e0: 0250 583e cae6 8e3e 0130 2abd ac91 33bc
000002f0: 1631 cb3d 64ac 8d3e 55a9 143e c93d 95be
00000300: 51ed 853d db0b 783e 9d6c 67bd 4b5a fb3d
00000310: 2640 9fbd 4460 c5bd 2d6c 563a 4226 c03c
00000320: 4ea8 f6be e9d2 03bd 5ff0 dd3d 8293 6bbe
00000330: 117e b33e a586 51be 3988 7bbe af8a a73e
00000340: c4bb 96bd 8765 57be 35eb c83d 6be7 50bd
00000350: b5e8 8dbe ac41 323e 1d0b adbd 4a17 b0bd
00000360: d3ed 7d3d 96ff 523e 2255 a43e 1692 3a3e
00000370: 3b86 913e c544 963e f8a6 40be bc4d 30bd
00000380: 1fdc db3c 4126 423d 78b3 9b3d e406 8b3e
00000390: 5d18 8ebc b254 38bd fe3e 503d 9e1d acbe
000003a0: de7e 8fbe dca9 e7bd 4feb 9b3c c971 143e
000003b0: 5ac3 57bc c301 d9bd c8ea e9bb 1dc7 13be
000003c0: 7df0 69be 2fbd 86be 99a3 67be 418a 643c
000003d0: da70 963d cdaa 843d 2d2e 753e 304d 90bd
000003e0: 7610 d1bd 2692 2d3d cd87 293e ef9f 8c3d
000003f0: 4730 1f3d 0300 fdbc 3aff 95be b434 68be

bn.weight f4 [16]
0.7209911 1.1254343 0.83192694 0.9774732 0.9573873 0.8036862 1.0808123 1.5030041
0.8354154 0.8326814 0.9881419 1.452391 1.0782344 1.1935307 0.9075129 1.102545
00000000: df92 383f 3b0e 903f 2af9 543f af3b 7a3f
00000010: 5617 753f 61be 4d3f 0f58 8a3f 7062 c03f
00000020: c9dd 553f 9c2a 553f def6 7c3f f3e7 b93f
00000030: 9603 8a3f 9dc5 983f c452 683f 3220 8d3f

bn.bias f4 [16]
-0.25881898 0.13978004 0.118843935 -0.028926162 0.0029645371 -0.054135323 0.16017975 -0.07425518
-0.28036433 -0.108147465 0.0050928853 0.09315368 -0.28400645 0.20735592 -0.05573674 0.012828469
00000000: ec83 84be 8022 0f3e 7364 f33d 8ff6 ecbc
00000010: ae48 423b 00bd 5dbd 2906 243e 1a13 98bd
00000020: ea8b 8fbe 6b7c ddbd 38e2 a63b 5bc7 be3d
00000030: 4b69 91be 1c55 543e 354c 64bd 802e 523c

bn.running_mean f4 [16]
-0.7512124 -0.53139853 0.8169761 -0.3055576 0.14456123 0.3553818 -0.016064266 -0.13469052
-0.05260753 -0.61146903 0.004279866 -0.017931985 -0.09085103 0.054743662 0.3202594 0.9012698
00000000: 754f 40bf bc09 08bf 5825 513f 0c72 9cbe
00000010: dc07 143e 9af4 b53e 3599 83bc 50ec 09be
00000020: fe7a 57bd 3c89 1cbf 1e3e 8c3b 19e6 92bc
00000030: 1b10 babd e43a 603d 0af9 a33e 9eb9 663f

bn.running_var f4 [16]
0.22701727 0.1819125 0.2557372 0.122145265 0.09920737 0.16274433 0.070960246 0.10609296
0.11484999 0.16888498 0.052000098 0.093364626 0.096256845 0.06415913 0.118724726 0.4085181
00000000: 3777 683e 4547 3a3e fcef 823e 4c27 fa3d
00000010: 3c2d cb3d 73a6 263e 9b53 913d 4447 d93d
00000020: 7936 eb3d 2ff0 2c3e 0efe 543d f435 bf3d
00000030: 4f22 c53d dd65 833d f325 f33d 4929 d13e

layer1.0.conv1.weight f4 [16, 16, 3, 3]
-0.089292616 -0.06904427 -0.20553766 -0.16593261 -0.020900939 -0.02793894 -0.16567673 -0.014205014
-0.14467327 -0.14848615 -0.11538718 -0.11908114 -0.11907964 -0.15924473 -0.14071737 -0.12778476
-0.111169495 -0.070501834 0.19194691 0.26591825 0.21503302 0.121893995 0.29258385 0.17529102
-0.04716029 0.04772429 0.067581065 -0.032617368 0.020366307 -0.07018408 0.10191989 0.11110669
0.10602677 0.13849396 0.19944914 0.28292152 0.09393346 0.12871093 0.10164109 0.01775106
0.08816033 0.10439493 0.10158406 0.21030982 0.12758134 -0.12153459 0.015445918 -0.1569265
0.058876652 0.15682049 0.11541744 0.24190296 0.32660827 0.12256822 -0.060650684 -0.04724851
-0.1593929 0.106116176 0.070251316 -0.02620956 0.12460942 0.20086229 0.105126895 0.16927154
0.043742087 0.0694846 0.10796247 0.080954105 0.09957017 0.05125944 0.08432974 0.0814558
0.09295165 0.10018649 0.11843597 0.18015634 0.30193254 0.31677493 0.29256785 0.21429183
0.21879704 0.079571605 -0.05739098 -0.028898055 -0.020665025 -0.08560352 -0.060664494 0.033750415
0.027898032 0.10633437 0.116035536 0.28605616 0.17161778 0.06359635 0.07252172 0.0023612012
0.09319096 0.11387192 -0.07485029 -0.09017812 0.15626362 0.09895676 -0.09880654 0.14563546
0.059727125 -0.09392537 0.1463965 0.060927987 0.06122865 0.092063166 0.2068543 0.2517238
0.26308033 0.16220848 0.29289204 0.23209654 0.35548255 -0.12860905 -0.13543196 -0.07162904
-0.17177364 -0.11717664 -0.14071305 -0.20748036 -0.21069594 -0.24325578 -0.028662419 0.008761907
0.024951227 -0.19657189 -0.12327674 -0.00057264697 -0.29841945 -0.25006628 -0.08034418 0.026600383
-0.11135429 -0.09583451 -0.02676 -0.0008558892 -0.012900615 -0.10192192 -0.12951523 -0.03819343
-0.077582136 0.105224825 0.124156415 0.020719312 0.04425374 0.074141145 -0.13480914 0.10591631
0.15211447 -0.1544152 -0.08405706 -0.15194277 0.0022313641 0.068312936 0.08081016 0.05082321
0.09997823 0.014601999 -0.17822476 -0.1818682 -0.23946355 -0.054430068 -0.1035886 -0.049654912
-0.1069176 -0.022733502 -0.19375837 -0.14627418 -0.052860018 0.020307988 -0.18264453 -0.12153875
-0.08487719 -0.125652 -0.2014561 0.04557032 -0.14801721 -0.00028315396 0.073001064 -0.17846866
0.07845277 0.18521214 -0.17746864 -0.09958561 0.06325205 -0.15299991 0.018133206 0.072961725
-0.119543776 -0.017422585 0.14191888 -0.21419594 -0.07776623 0.0816497 -0.13246123 0.0021547046
0.110115156 -0.040168967 -0.026444973 0.10366447 -0.014048168 0.088908084 0.035278905 0.37288266
0.23504336 -0.08351664 0.38610157 0.3440248 0.0810865 0.52073014 0.17771755 -0.02616804
0.0053846096 0.040633477 0.037045743 0.09832055 0.107471526 0.141078 -0.0691873 0.09078346
0.25868472 -0.03965945 0.105684124 0.025176065 0.13488843 0.09889848 0.12836653 0.11149628
0.04711061 -0.05033263 -0.22905272 -0.028174244 -0.113436274 -0.082315624 -0.045094695 0.10967651
-0.16810417 -0.032565348 0.097746305 -0.2149673 -0.022504363 0.107360065 -0.10879811 0.02727855
0.22333418 -0.21763451 0.13709506 0.32381904 -0.03506031 -0.06551709 -0.051842667 -0.00054014975
00000000: 0cdf b6bd 1567 8dbd 7778 52be 3dea 29be
00000010: 7238 abbc 34e0 e4bc 29a7 29be 26bc 68bc
00000020: 3b25 14be c10c 18be 1d50 ecbd d0e0 f3bd
00000030: 07e0 f3bd 0d11 23be 3718 10be 02da 02be
00000040: d5ac e3bd 4463 90bd bb8d 443e 7026 883e
00000050: 9e31 5c3e 8fa3 f93d 8dcd 953e 7d7f 333e
00000060: 262b 41bd 8c7a 433d f167 8a3d ca99 05bd
00000070: 3ed7 a63c acbc 8fbd 60bb d03d e78b e33d
00000080: 9024 d93d 5cd1 0d3e 653c 4c3e 17db 903e
00000090: 3060 c03d cccc 033e 3429 d03d ac6a 913c
000000a0: 678d b43d 02cd d53d 4e0b d03d 755b 573e
000000b0: afa4 023e 21e7 f8bd e010 7d3c 57b1 20be
000000c0: a528 713d 8d95 203e fb5f ec3d 69b5 773e
000000d0: 3339 a73e 0c05 fb3d da6c 78bd a787 41bd
000000e0: e437 23be 7053 d93d ecdf 8f3d 6eb5 d6bc
000000f0: 3933 ff3d d8ae 4d3e c54c d73d 8555 2d3e
00000100: e72a 333d f14d 8e3d 6d1b dd3d 44cb a53d
00000110: 72eb cb3d 6bf5 513d 12b5 ac3d 4cd2 a63d
00000120: 6f5d be3d 932e cd3d 8f8e f23d e77a 383e
00000130: e796 9a3e 5330 a23e 74cb 953e 516f 5b3e
00000140: 550c 603e 70f6 a23d ce12 6bbd 9dbb ecbc
00000150: b349 a9bc e650 afbd 557b 78bd e03d 0a3d
00000160: 6a8a e43c d6c5 d93d 0aa4 ed3d f475 923e
00000170: 92bc 2f3e ce3e 823d 4486 943d 62be 1a3b
00000180: e7da be3d ae35 e93d 1c4b 99bd 4eaf b8bd
00000190: 9203 203e d7a9 ca3d 155b cabd 7621 153e
000001a0: 6ea4 743d f25b c0bd f7e8 153e a08f 793d
000001b0: e5ca 7a3d 9d8b bc3d 9dd1 533e f1e1 803e
000001c0: 77b2 863e fb19 263e f2f5 953e b7aa 6d3e
000001d0: cf01 b63e 17b2 03be adae 0abe 3fb2 92bd
000001e0: 6ee5 2fbe 4efa efbd 1517 10be bb75 54be
000001f0: adc0 57be 0b18 79be 73cd eabc 1a8e 0f3c
00000200: 8466 cc3c 244a 49be 8478 fcbd b01d 16ba
00000210: 6fca 98be b008 80be 7d8b a4bd 0ce9 d93c
00000220: b80d e4bd e244 c4bd ca37 dbbc c05d 60ba
00000230: 1a5d 53bc 71bc d0bd a49f 04be b770 1cbd
00000240: 62e3 9ebd 1d80 d73d b845 fe3d 8cbb a93c
00000250: 6943 353d 50d7 973d 680b 0abe a6ea d83d
00000260: e5c3 1b3e 051f 1ebe 1c26 acbd e396 1bbe
00000270: 143c 123b a7e7 8b3d cc7f a53d 002c 503d
00000280: 63c1 cc3d 393d 6f3c 8d80 36be a83b 3abe
00000290: ef35 75be 10f2 5ebd 4326 d4bd f362 4bbd
000002a0: 9df7 dabd 9c3b babc 9868 46be e6c8 15be
000002b0: bf83 58bd f05c a63c 2b07 3bbe 4fe9 f8bd
000002c0: 18d4 adbd ebaa 00be 824a 4ebe f2a7 3a3d
000002d0: d391 17be 4874 94b9 9581 953d 7dc0 36be
000002e0: d9ab a03d 40a8 3d3e 57ba 35be 8af3 cbbd
000002f0: 4a8a 813d 02ac 1cbe 178c 943c f56c 953d
00000300: 5ed3 f4bd cfb9 8ebc 2f53 113e 2e56 5bbe
00000310: e743 9fbd f537 a73d eba3 07be f235 0d3b
00000320: 0e84 e13d 3788 24bd 21a3 d8bc 0a4e d43d
00000330: 4a2a 66bc 7115 b63d 9d80 103d 7aea be3e
00000340: 35af 703e c60a abbd 1baf c53e 0524 b03e
00000350: ae10 a63d 924e 053f 97fb 353e 5c5e d6bc
00000360: 6171 b03b 4a6f 263d 47bd 173d 495c c93d
00000370: 081a dc3d c076 103e 12b2 8dbd aeec b93d
00000380: 5372 843e f371 22bd eb70 d83d 093e ce3c
00000390: 3120 0a3e 498b ca3d 8472 033e 2958 e43d
000003a0: 0ef7 403d 9629 4ebd cc8c 6abe accd e6bc
000003b0: 4751 e8bd 1895 a8bd 37b5 38bd 149e e03d
000003c0: 8023 2cbe 3e63 05bd 372f c83d 6320 5cbe
000003d0: 125b b8bc 98df db3d 8bd1 debd 4477 df3c
000003e0: b7b1 643e 95db 5ebe a662 0c3e 9ccb a53e
000003f0: 669b 0fbd d32d 86bd fa58 54bd d698 0dba

layer1.0.bn1.weight f4 [16]
0.88715386 1.0172862 0.9372655 1.0770442 0.88900983 1.3253137 1.0366504 0.89213216
1.27579 1.0307659 0.85807496 0.9743135 0.992196 1.0566405 0.9967758 0.89298636
00000000: 841c 633f 6f36 823f a2f0 6f3f 96dc 893f
00000010: 2696 633f e1a3 a93f f6b0 843f c662 643f
00000020: 164d a33f 23f0 833f cdaa 5b3f 9c6c 793f
00000030: 8f00 7e3f ff3f 873f b32c 7f3f c19a 643f

layer1.0.bn1.bias f4 [16]
-0.3221335 -0.010026226 -0.119875446 -0.1325428 -0.09272931 -0.07723342 -0.122612834 -0.22691917
0.047256332 -0.061849408 -0.31143674 -0.24349098 -0.041486263 -0.115448795 -0.30297545 0.12012279
00000000: afee a4be 0a45 24bc 4281 f5bd 4db9 07be
00000010: dde8 bdbd 8e2c 9ebd 701c fbbd 805d 68be
00000020: db8f 413d ce55 7dbd a374 9fbe b355 79be
00000030: 80ed 29bd 6b70 ecbd 991f 9bbe f002 f63d

layer1.0.bn1.running_mean f4 [16]
1.1152025 -0.36670455 -2.4386659 -4.2676806 -0.8130572 0.90393317 -1.8445175 0.92741746
-2.372389 0.002938754 2.357934 -0.60316575 -0.84365064 -0.14318602 -1.1016724 -1.5676372
00000000: f5be 8e3f b3c0 bbbe 1a13 1cc0 d790 88c0
00000010: 8424 50bf 2a68 673f 2619 ecbf 3b6b 6d3f
00000020: 39d5 17c0 1c98 403b 64e8 1640 1269 1abf
00000030: 7df9 57bf 5b9f 12be 9a03 8dbf 56a8 c8bf

layer1.0.bn1.running_var f4 [16]
9.3863125 9.340224 7.43277 9.490085 3.8407571 11.926247 12.184695 5.017268
6.6269937 6.2166615 6.028511 9.084488 7.4501076 7.293794 4.0119247 5.022452
00000000: 562e 1641 8f71 1541 40d9 ed40 63d7 1741
00000010: f7ce 7540 e8d1 3e41 83f4 4241 768d a040
00000020: 5510 d440 e4ee c640 90e9 c040 105a 1141
00000030: 4867 ee40 c366 e940 b061 8040 edb7 a040

layer1.0.conv2.weight f4 [16, 16, 3, 3]
0.12672074 0.10885806 0.05563677 0.095997855 0.024944166 0.06509659 0.027667735 -0.014207753
0.011317621 0.010635367 -0.02498526 0.013431049 0.019666199 -0.035729557 -0.07037955 -0.10165039
-0.12590446 -0.17300208 -0.12310084 0.037477847 0.0108849695 -0.002116572 -0.05222939 0.0356353
-0.21099912 -0.22430246 -0.19818969 -0.15434027 0.021852328 -0.0010032125 -0.0975083 -0.10728386
0.06260958 -0.058161385 -0.044525057 0.062105134 0.014059258 0.032878656 0.13220231 0.021961119
0.09926481 0.051042322 -0.1260521 -0.25778052 -0.07398137 0.18184038 0.18766369 0.05635878
0.28778276 0.037097245 -0.08719778 0.05100581 -0.007249656 -0.23855108 -0.10443452 -0.05587974
0.0325691 0.012322326 -0.089994796 0.024246302 0.03873448 -0.03722126 -0.10979791 -0.08394748
-0.024608953 0.035419054 -0.03859225 -0.005581668 -0.012149375 -0.017165594 -0.094561934 -0.0019795226
-0.1833893 -0.18674992 -0.090909205 -0.037961256 0.07220146 0.010475013 0.071762145 0.21893816
0.21803816 0.09229852 0.039975863 -0.024625113 0.044281144 -0.006518153 0.041336056 -0.15019247
-0.11350176 -0.08216843 0.09024018 0.03020402 -0.002612278 0.015777193 -0.227255 -0.12991762
0.17886078 0.10853404 0.052490667 -0.008801524 0.034421325 0.04263592 -0.053841606 0.038450465
-0.087155215 0.0064895297 0.096937306 -0.009851185 -0.07537177 -0.0744695 -0.10191789 -0.11258705
-0.08154179 -0.02492183 -0.07606637 -0.07268929 -0.0935244 0.053690918 0.1068681 0.05790236
0.06603377 0.09883242 0.18368982 -0.08500147 0.0069279596 -0.057010654 0.07918383 0.04045623
0.0143533405 0.3087691 0.19930334 0.18567029 -0.1890895 -0.058303565 -0.045020077 -0.017043756
0.13197963 0.0069973003 0.11517483 0.13669294 0.26950347 -0.18836656 -0.08630977 0.0045182933
-0.17497782 -0.15843624 -0.1715806 0.007964052 -0.006042401 -0.018513624 0.015335553 0.049249694
0.12176091 -0.12679946 -0.13622312 -0.08260773 -0.13179216 -0.32619286 -0.10700338 -0.16556431
-0.18042432 -0.16951062 -0.033518612 -0.031276945 -0.08883304 -0.115728326 -0.15616906 -0.045553494
-0.10587089 -0.07896986 -0.057181854 0.13163622 0.11555019 0.10485278 0.119141206 0.24838714
0.20488632 0.10127589 0.21370436 0.19707972 -0.103643484 -0.17314844 -0.012319662 0.03860846
-0.081095114 0.07598341 -0.06172466 -0.014959675 0.06692469 -0.027961772 -0.11667614 -0.16040893
-0.23149402 -0.14182137 -0.28014362 -0.2707932 -0.26833513 -0.23506062 0.08052992 0.086756095
0.05306775 0.051633842 -0.038513843 0.017659124 0.02994016 -0.021642959 -0.03781513 -0.17125142
-0.14353447 -0.0037498008 -0.01790661 0.0064605484 0.05048841 0.0068148877 -0.024542965 0.12501867
0.20848925 0.08901807 0.058802977 0.2971618 0.1498975 0.2122449 0.06913684 0.20308165
0.11767847 0.036705155 -0.07641867 -0.13352285 -0.056846015 -0.0056577213 -0.014404902 -0.092769936
-0.0489462 -0.1741243 -0.0001581269 -0.14597145 -0.01736511 -0.014955629 0.008135536 -0.040335927
-0.066289015 0.0744935 0.052180573 -0.15011087 -0.063123204 -0.07252854 -0.1982355 -0.050906114
0.080199614 0.009117048 0.016347928 0.07827275 0.0033548812 -0.022087991 -0.060117386 -0.047728684
00000000: 15c3 013e f9f0 de3d 62e3 633d 869a c43d
00000010: b557 cc3c 5c51 853d 72a7 e23c a3c7 68bc
00000020: 8b6d 393c f63f 2e3c e3ad ccbc e70d 5c3c
00000030: 021b a13c 2859 12bd 2723 90bd 142e d0bd
00000040: 19ed 00be 7527 31be 4b1c fcbd 5f82 193d
00000050: df56 323c 30b6 0abb 7cee 55bd 52f6 113d
00000060: 2710 58be 8baf 65be 3df2 4abe 600b 1ebe
00000070: a703 b33c 3a7e 83ba 6eb2 c7bd a4b7 dbbd
00000080: 7439 803d a23a 6ebd e85f 36bd f461 7e3d
00000090: cd58 663c c5ab 063d 0b60 073e cee7 b33c
000000a0: 594b cb3d c111 513d cd13 01be cffb 83be
000000b0: 8b83 97bd 5d34 3a3e e92a 403e 77d8 663d
000000c0: 4358 933e 48f3 173d c094 b2bd 78eb 503d
000000d0: 868e edbb bc46 74be c4e1 d5bd 27e2 64bd
000000e0: 2d67 053d 95e3 493c 314f b8bd 2ea0 c63c
000000f0: 0ca8 1e3d 5275 18bd badd e0bd a8ec abbd
00000100: b798 c9bc 9213 113d e812 1ebd 6de6 b6bb
00000110: 2c0e 47bc dc9e 8cbc b0a9 c1bd e1ba 01bb
00000120: 68ca 3bbe 5f3b 3fbe 9b2e babd 437d 1bbd
00000130: 5cde 933d 649f 2b3c 08f8 923d 5331 603e
00000140: 6545 5f3e 0207 bd3d bbbd 233d 9bba c9bc
00000150: 2560 353d 3b96 d5bb ff4f 293d 0ecc 19be
00000160: 9c73 e8bd ec47 a8bd d8cf b83d 6c6e f73c
00000170: c132 2bbb 2c3f 813c 89b5 68be 2009 05be
00000180: 4827 373e 1847 de3d 7400 573d 4434 10bc
00000190: 60fd 0c3d 01a3 2e3d 0489 5cbd 3c7e 1d3d
000001a0: 6f7e b2bd 1fa6 d43b 1187 c63d dd66 21bc
000001b0: 845c 9abd 7783 98bd 54ba d0bd 0a94 e6bd
000001c0: 62ff a6bd de28 ccbc afc8 9bbd 1fde 94bd
000001d0: b889 bfbd 02eb 5b3d aadd da3d 062b 6d3d
000001e0: b73c 873d a768 ca3d 2f19 3c3e 4015 aebd
000001f0: f003 e33b 0184 69bd 222b a23d 6fb5 253d
00000200: 462a 6b3c fc16 9e3e 2d16 4c3e 5a20 3e3e
00000210: aea0 41be b8cf 6ebd f966 38bd 599f 8bbc
00000220: ab25 073e 9c49 e53b c8e0 eb3d 3cf9 0b3e
00000230: 5cfc 893e 2ae3 40be 2dc3 b0bd 310e 943b
00000240: 632d 33be 1c3d 22be d3b2 2fbe a87b 023c
00000250: 55ff c5bb e2a9 97bc f941 7b3c 0cba 493d
00000260: c95d f93d b8d7 01be 137e 0bbe 3e2e a9bd
00000270: 86f4 06be c002 a7be 9724 dbbd b189 29be
00000280: 27c1 38be 3194 2dbe d04a 09bd 411c 00bd
00000290: 19ee b5bd f902 edbd c8ea 1fbe 4d96 3abd
000002a0: d6d2 d8bd f3ba a1bd 8537 6abd a5cb 063e
000002b0: 94a5 ec3d 0ebd d63d 4e00 f43d 3359 7e3e
000002c0: b8cd 513e bc69 cf3d 51d5 5a3e 44cf 493e
000002d0: 0943 d4bd d34d 31be 68d8 49bc e823 1e3d
000002e0: 3215 a6bd 319d 9b3d ffd2 7cbd 6d19 75bc
000002f0: d00f 893d 1610 e5bc e6f3 eebd 3d42 24be
00000300: c50c 6dbe 9f39 11be fc6e 8fbe 68a5 8abe
00000310: 3963 89be bbb3 70be dfec a43d 2ead b13d
00000320: 925d 593d 027e 533d b1c0 1dbd dea9 903c
00000330: 1145 f53c 934c b1bc 0ae4 1abd 885c 2fbe
00000340: b3fa 12be 38bf 75bb e2b0 92bc 02b3 d33b
00000350: efcc 4e3d 6c4f df3b 540e c9bc e504 003e
00000360: 357e 553e 1b4f b63d 64db 703d 9725 983e
00000370: bb7e 193e ba56 593e 9e97 8d3d a3f4 4f3e
00000380: 6901 f13d 2558 163d 6481 9cbd 37ba 08be
00000390: 5ed7 68bd 6864 b9bb 8a02 6cbc 2afe bdbd
000003a0: d07b 48bd a44d 32be dece 25b9 8a79 15be
000003b0: 4641 8ebc 7408 75bc e94a 053c 4937 25bd
000003c0: 89c2 87bd 0c90 983d 4cbb 553d aab6 19be
000003d0: bd46 81bd d889 94bd 3ffe 4abe ee82 50bd
000003e0: b23f a43d ac5f 153c 17ec 853c 774d a03d
000003f0: 91dd 5b3b e0f1 b4bc a63d 76bd 277f 43bd

layer1.0.bn2.weight f4 [16]
0.9528849 1.0890069 1.0327624 0.89207935 1.082008 0.8206465 1.2188061 1.0909693
1.0983696 0.8632857 1.2451988 1.1868833 0.7806231 0.89845085 1.2070417 1.0782007
00000000: 44f0 733f 9464 8b3f 8f31 843f 505f 643f
00000010: 3d7f 8a3f e415 523f d701 9c3f e2a4 8b3f
00000020: 6097 8c3f 4b00 5d3f ad62 9f3f cbeb 973f
00000030: ead6 473f e000 663f 5880 9a3f 7b02 8a3f

layer1.0.bn2.bias f4 [16]
0.008934341 0.254298 0.27858967 -0.019246107 0.18441159 -0.11589634 0.1754811 -0.053560328
0.03629552 -0.06799691 0.21329156 0.018479759 -0.19456531 0.39064994 -0.18972754 0.30968583
00000000: 5861 123c 5933 823e 4ea3 8e3e 03aa 9dbc
00000010: 64d6 3c3e 0f5b edbd 51b1 333e 1362 5bbd
00000020: 9caa 143d f741 8bbd 1a69 5a3e dd62 973c
00000030: 213c 47be 4503 c83e f047 42be 248f 9e3e

layer1.0.bn2.running_mean f4 [16]
-0.10272041 -1.1854334 -2.3765922 0.78968424 -1.9248807 -0.14166972 0.4598277 0.017059878
1.2096264 0.3248636 0.2682346 -0.104334936 -0.07326268 -0.3191069 -1.418683 -0.45077378
00000000: 145f d2bd 48bc 97bf 161a 18c0 bf28 4a3f
00000010: 7e62 f6bf de11 11be 896e eb3e 28c1 8b3c
00000020: 0ad5 9a3f 8654 a63e 0c56 893e 8ead d5bd
00000030: be0a 96bd fb61 a3be 6897 b5bf d2cb e6be

layer1.0.bn2.running_var f4 [16]
2.9886801 5.8566747 12.032343 7.1926513 9.752261 5.432439 12.744286 7.2323937
11.935374 3.2635076 9.842764 4.277437 3.9008188 2.2708 3.5475287 10.276723
00000000: 8946 3f40 e169 bb40 7a84 4041 332a e640
00000010: 4309 1c41 8ad6 ad40 98e8 4b41 c56f e740
00000020: 4bf7 3e41 4fdd 5040 f67b 1d41 c4e0 8840
00000030: 04a7 7940 ca54 1140 b60a 6340 756d 2441

layer1.1.conv1.weight f4 [16, 16, 3, 3]
-0.17137448 -0.07450753 0.059749685 0.056206167 0.019200215 0.037367526 -0.011746279 -0.022971593
0.066077285 0.030596161 0.2095587 0.1580031 0.039635893 0.11041946 0.11839638 0.023245899
0.16511314 0.2233939 -0.0969228 0.008950928 0.084049314 -0.06494051 -0.05833439 -0.09600658
-0.10279525 -0.1874248 -0.060288843 0.0279411 -0.0033031418 0.011542242 0.12419715 0.05830582
0.0260598 0.22413477 0.1285264 0.091148876 0.10015583 0.035047393 0.09778615 -0.030670177
-0.034989823 -0.0017045112 -0.06294794 -0.15163004 -0.08418931 0.11064888 0.020882087 0.04254981
0.024071053 0.046211727 -0.07998865 0.095000245 0.10595945 0.05225755 0.09838656 0.03514654
-0.036527336 0.22551651 0.17044918 0.14627397 0.2580875 0.3050922 0.2298272 0.18577528
0.31157485 0.34930602 0.17610523 0.14191593 0.19177203 -0.06712331 0.115582414 0.18626773
0.016037937 0.053918943 0.04564991 0.17309259 0.11303995 0.20448944 0.1899331 0.20531501
0.2846251 -0.07690573 -0.08146787 -0.07157174 -0.12047026 -0.018076189 -0.057661925 -0.11225008
-0.058251113 -0.023040822 -0.022617368 -0.13093886 -0.110716484 -0.15613955 -0.09755991 -0.17363334
-0.11800728 -0.09461399 -0.24410602 0.014272951 -0.04685366 0.11174884 0.09309656 0.115138054
0.11760728 0.13278587 0.19051695 0.1612769 -0.02452158 0.021842225 0.14091754 0.04878909
-0.01813599 0.07999537 0.051595267 -0.054599307 0.046146587 -0.07307974 -0.0203143 -0.08724306
-0.044684537 0.045417868 0.053595193 0.036520638 -0.01506631 -0.031834 0.076240055 0.09513524
-0.015257627 -0.008443632 0.16502552 0.10188787 0.04727032 0.068771 -0.045587696 0.15969095
0.21316545 0.16238949 0.12675942 0.15951322 0.16723022 0.12304332 0.0611201 0.20991567
0.03361419 0.0107048135 0.09330204 -0.17005941 -0.105152786 0.032129534 -0.16092546 -0.13747524
-0.19902392 0.07098111 0.045563255 -0.046254363 0.13612166 0.0919185 0.21199681 -0.0647881
-0.12329679 -0.030298386 -0.057652663 0.009973162 0.0066566896 0.005420662 -0.035770252 -0.04401156
-0.068899505 0.0075605693 0.013287259 0.018311948 0.0635852 0.023219427 -0.09292579 -0.032253727
0.06857271 0.013216919 0.1146452 0.049574446 -0.06204336 0.0055464422 0.045737967 0.027072374
0.040880863 0.038236246 0.017485999 0.030574363 -0.087435424 0.01511959 0.054791894 0.03478711
0.08205219 -0.030135795 -0.064777225 -0.0045510903 0.073660314 -0.09505741 -0.0030147177 -0.12072124
-0.1447588 0.0075201094 -0.0458271 -0.19184962 0.19984259 0.08624414 0.14684537 -0.090536386
0.110770546 -0.12169405 0.10216868 0.038692057 -0.07595252 -0.14376618 0.0045620343 -0.16013446
-0.028822452 0.01591304 -0.013226666 -0.06663583 0.024269853 0.014316815 -0.013165725 0.012422739
0.0008942244 0.13586228 0.030175764 0.10121701 -0.11258584 -0.020811718 -0.06921968 -0.16151561
-0.12778392 -0.19769895 -0.19349223 -0.1649643 -0.21465136 0.124262184 0.18578403 0.30977255
-0.1606711 -0.21428955 -0.098551355 -0.22273642 -0.07117579 -0.15053084 0.13323134 0.22498116
0.10086513 -0.23541865 -0.1512046 -0.05028519 0.041691903 0.061020322 0.1085957 0.078732304
00000000: cb7c 2fbe 6797 98bd 16bc 743d 7038 663d
00000010: c549 9d3c b10e 193d 7773 40bc ec2e bcbc
00000020: 8753 873d cda4 fa3c 8e96 563e 91cb 213e
00000030: 3f59 223d 9923 e23d cd79 f23d 2f6e be3c
00000040: 6b13 293e 5fc1 643e 767f c6bd eaa6 123c
00000050: 0c22 ac3d 88ff 84bd 0bf0 6ebd 199f c4bd
00000060: 5186 d2bd 49ec 3fbe 6ff1 76bd bce4 e43c
00000070: 8679 58bb ac1b 3d3c 135b fe3d 15d2 6e3d
00000080: 5d7b d53c 9683 653e 6d9c 033e 43ac ba3d
00000090: 801e cd3d db8d 0f3d 1b44 c83d 0640 fbbc
000000a0: 7d51 0fbd e869 dfba d9ea 80bd e844 1bbe
000000b0: 726b acbd e19b e23d e910 ab3c b648 2e3d
000000c0: a830 c53c 8248 3d3d 17d1 a3bd 7d8f c23d
000000d0: 4501 d93d 030c 563d e57e c93d d1f5 0f3d
000000e0: b09d 15bd cded 663e 3b8a 2e3e d8c8 153e
000000f0: 0b24 843e 0b35 9c3e d257 6b3e e03b 3e3e
00000100: bd86 9f3e 3dd8 b23e ee54 343e 6952 113e
00000110: e35f 443e f277 89bd 79b6 ec3d f8bc 3e3e
00000120: fe61 833c 1cda 5c3d 66fb 3a3d 2f3f 313e
00000130: 7d81 e73d ae65 513e d37d 423e 193e 523e
00000140: 62ba 913e c080 9dbd a0d8 a6bd 3494 92bd
00000150: 1db9 f6bd 8414 94bc e92e 6cbd 5fe3 e5bd
00000160: b898 6ebd 1bc0 bcbc 0f48 b9bc d614 06be
00000170: 53bf e2bd 0ce3 1fbe 7dcd c7bd f0cc 31be
00000180: cdad f1bd fbc4 c1bd eef6 79be 18d9 693c
00000190: a0e9 3fbd 93dc e43d 69a9 be3d 80cd eb3d
000001a0: 16dc f03d 05f9 073e e016 433e c625 253e
000001b0: 7be1 c8bc 77ee b23c b04c 103e 12d7 473d
000001c0: ed91 94bc 9dd4 a33d 8f55 533d 86a3 5fbd
000001d0: 3404 3d3d d5aa 95bd 2d6a a6bc 7dac b2bd
000001e0: 2207 37bd 1608 3a3d a286 5b3d aa96 153d
000001f0: afd8 76bc 5e64 02bd bf23 9c3d 44d6 c23d
00000200: 20fb 79bc 2957 0abc 73fc 283e 96aa d03d
00000210: 869e 413d cfd7 8c3d 2aba 3abd 0686 233e
00000220: 0b48 5a3e 6e49 263e 39cd 013e 6f57 233e
00000230: 663e 2b3e 23fe fb3d 1259 7a3d 22f4 563e
00000240: 08af 093d 3e63 2f3c 2415 bf3d 0e24 2ebe
00000250: 585a d7bd 429a 033d a5c9 24be 4fc6 0cbe
00000260: edcc 4bbe 8b5e 913d 89a0 3a3d 3775 3dbd
00000270: 7a63 0b3e c43f bc3d b115 593e a0af 84bd
00000280: 0783 fcbd 5234 f8bc 3325 6cbd 7966 233c
00000290: 5c20 da3b cf9f b13b d483 12bd 7745 34bd
000002a0: 2f1b 8dbd a7be f73b ceb2 593c f002 963c
000002b0: f538 823d ab36 be3c e04f bebd 7c1c 04bd
000002c0: d96f 8c3d c78b 583c 1acb ea3d 930e 4b3d
000002d0: 2e21 7ebd eebe b53b bc57 3b3d e2c6 dd3c
000002e0: b172 273d 9c9d 1c3d cc3e 8f3c 1677 fa3c
000002f0: 5811 b3bd 28b8 773c 776d 603d ee7c 0e3d
00000300: fb0a a83d 58df f6bc eca9 84bd 5021 95bb
00000310: 38db 963d 76ad c2bd 9292 45bb b33c f7bd
00000320: a73b 14be 406b f63b 32b5 3bbd 3a74 44be
00000330: 89a3 4c3e c5a0 b03d a25e 163e 246b b9bd
00000340: abdb e23d bb3a f9bd d03d d13d 907b 1e3d
00000350: ff8c 9bbd 7137 13be 1e7d 953b 4afa 23be
00000360: 101d ecbc 105c 823c a8b4 58bc 5e78 88bd
00000370: 92d1 c63c 1391 6a3c 0eb5 57bc be88 4b3c
00000380: 626a 6a3a 7b1f 0b3e 2a33 f73c dd4a cf3d
00000390: 6893 e6bd 567d aabc 0cc3 8dbd 5964 25be
000003a0: cad9 02be 9871 4abe d422 46be 67ec 28be
000003b0: 91cd 5bbe 2c7d fe3d 2b3e 3e3e 829a 9e3e
000003c0: f786 24be b86e 5bbe 4bd5 c9bd 0415 64be
000003d0: 9dc4 91bd c224 1abe cc6d 083e 7661 663e
000003e0: 6192 ce3d 9611 71be 61d5 1abe d8f7 4dbd
000003f0: 21c5 2a3d 72f0 793d 6c67 de3d 673e a13d

layer1.1.bn1.weight f4 [16]
1.0736136 1.0975924 0.92981356 0.7305013 1.0879611 1.1008548 1.1164529 1.0033914
1.0488199 1.1599131 1.0547 1.0359962 0.9595583 0.6832334 1.0983206 0.82498944
00000000: 2c6c 893f e87d 8c3f 4308 6e3f 2202 3b3f
00000010: 4f42 8b3f cfe8 8c3f eee7 8e3f 216f 803f
00000020: bb3f 863f 0878 943f 6900 873f 869b 843f
00000030: 9da5 753f 62e8 2e3f c595 8c3f 8232 533f

layer1.1.bn1.bias f4 [16]
-0.120785825 -0.19555484 0.09717815 0.15715986 -0.11937081 -0.013859874 0.27291 -0.03636963
-0.08290416 -0.1901784 -0.24077484 -0.12675397 0.218211 0.19847158 -0.18779035 -0.122576274
00000000: 8f5e f7bd 873f 48be 5705 c73d 84ee 203e
00000010: af78 f4bd 8614 63bc dcba 8b3e 52f8 14bd
00000020: a8c9 a9bd 20be 42be ae8d 76be cbcb 01be
00000030: b472 5f3e 223c 4b3e 1d4c 40be 4509 fbbd

layer1.1.bn1.running_mean f4 [16]
5.1474447 -1.0288025 -0.5835191 -4.091322 1.8165116 -2.9810529 -5.3160787 -4.6627526
-3.4193058 0.7739225 -0.40762597 0.17595492 -4.411247 -1.6668581 -2.9992673 -3.8156831
00000000: deb7 a440 cdaf 83bf 8261 15bf 1cec 82c0
00000010: 7483 e83f 92c9 3ec0 511d aac0 4535 95c0
00000020: e8d5 5ac0 c91f 463f 5ab4 d0be 872d 343e
00000030: ef28 8dc0 9b5b d5bf fff3 3fc0 2734 74c0

layer1.1.bn1.running_var f4 [16]
12.450752 11.903546 26.667063 27.101198 6.7029095 15.093127 12.283802 26.614552
14.318792 19.496162 10.324527 19.688942 19.753078 18.281149 10.745492 21.965221
00000000: 4836 4741 ed74 3e41 2556 d541 41cf d841
00000010: 3c7e d640 737d 7141 748a 4441 9aea d441
00000020: c619 6541 24f8 9b41 4331 2541 f482 9d41
00000030: 4e06 9e41 cb3f 9241 89ed 2b41 c6b8 af41

layer1.1.conv2.weight f4 [16, 16, 3, 3]
-0.12517054 0.0056463126 0.024364997 0.03963403 0.016364986 -0.018102154 -0.06575216 -0.030417401
-0.015001483 0.036558367 -0.07048913 -0.115709215 0.26515213 0.16679944 0.15071759 -0.0341209
0.11078607 0.28983828 -0.111966185 -0.07877717 -0.043759678 0.0012022663 -0.086279266 -0.015274639
-0.14917198 -0.125961 0.004739873 -0.027203167 0.015502246 0.082886666 0.09516422 -0.0012486092
0.09824827 -0.047091227 0.08137978 -0.05778428 -0.0027690546 -0.11075379 0.04056497 -0.23373204
-0.2801426 -0.22643875 0.056098048 -0.120378084 -0.020051619 -0.232697 -0.22842671 -0.16037278
0.13200647 0.048965674 0.04590098 0.20886458 0.19605865 0.27071163 -0.3088844 -0.22721767
-0.3443053 -0.07566777 -0.15271206 -0.22740117 0.27405748 0.40750393 0.28166065 -0.051733278
-0.048659224 -0.025381414 -0.12721336 -0.2634607 -0.22853974 0.0695452 0.05522793 -0.06979467
0.14303027 0.16082971 0.17660542 -0.14633375 0.06569318 0.034386724 -0.133566 -0.033344053
-0.1201597 0.11684954 0.06857701 -0.01182427 -0.040156458 -0.0415736 -0.0124972435 -0.032665472
-0.13886239 -0.04144906 -0.09031581 -0.027341638 0.058461323 0.05155343 0.07349713 0.018465668
-0.099596 -0.10803708 -0.09312778 0.00033635137 0.06426016 -0.020781327 -0.04857904 -0.053039864
-0.021045886 -0.058079917 -0.082007036 -0.09051197 0.103498794 0.18656039 0.084296644 0.017864231
0.032417007 0.108949944 -0.10695772 -0.13276641 -0.17669138 0.09326935 0.017869405 0.09891823
0.04264939 0.018688248 0.10190613 0.027039737 0.00118268 -0.04543186 -0.1660716 -0.13702495
-0.14620677 0.09850336 0.1975715 0.1424718 -0.13383791 0.015417434 0.08840949 -0.05120769
0.0055534765 -0.05298863 -0.028599825 0.0776619 0.07212871 -0.09498217 -0.07640677 -0.057255547
0.0035186145 -0.0866828 -0.1368872 0.0720828 0.0321476 0.14356178 0.1743915 0.06829497
0.16424952 0.032606352 0.066446826 0.11559786 0.004373121 -0.12581287 -0.066545084 -0.088504106
-0.20691204 -0.09164901 0.037875414 0.055760797 0.0916936 -0.14672889 -0.0887904 0.07479982
-0.07711363 -0.02499136 -0.029888107 -0.09235459 -0.02446397 0.05473423 -0.07533398 0.10647458
0.095033675 -0.00040430378 0.067222364 0.055344474 -0.25496674 -0.26831892 -0.23651133 -0.20184241
-0.06197442 -0.07287636 -0.14922534 -0.033410285 -0.15709613 -0.07213796 -0.112420045 0.0037319758
0.14435361 0.010418587 0.029650709 -0.14971401 -0.14935252 -0.039945774 -0.008686372 -0.050411902
-0.0756257 0.25058755 0.1085106 0.25153086 0.09208742 -0.0043784073 -0.04477549 -0.12596017
-0.08230527 -0.26453885 0.1363242 -0.08717788 -0.041484557 0.1270116 -0.06594253 -0.047048382
-0.19400884 -0.18822213 -0.07584655 -0.14281447 -0.1986559 -0.108802356 0.049906183 -0.03922636
-0.053646468 -0.096725464 -0.3138907 -0.256219 -0.08108133 -0.26171166 -0.16541865 0.017165678
-0.117110886 -0.033692885 0.095244914 0.16595139 0.18245813 0.007966961 0.079735294 0.077770166
-0.10142567 -0.019591996 -0.079863414 -0.10683296 -0.16321814 -0.23381805 -0.06327022 -0.09850022
-0.16448739 0.09711978 0.0043948228 -0.11148353 0.08200379 0.18334094 0.14566778 0.036285024
00000000: b52c 00be b404 b93b 1a99 c73c 4b57 223d
00000010: dd0f 863c f84a 94bc 12a9 86bd ea2d f9bc
00000020: c8c8 75bc 3abe 153d 9b5c 90bd f4f8 ecbd
00000030: 05c2 873e 79cd 2a3e b655 1a3e 5bc2 0bbd
00000040: cfe3 e23d af65 943e 874e e5bd ed55 a1bd
00000050: 593d 33bd 5d95 9d3a 2fb3 b0bd 7b42 7abc
00000060: 8ac0 18be ecfb 00be f050 9b3b 2dd9 debc
00000070: 22fd 7d3c 7cc0 a93d 75e5 c23d 5fa8 a3ba
00000080: 6436 c93d bbe2 40bd 71aa a63d 36af 6cbd
00000090: 0779 35bb e2d2 e2bd 7427 263d 7457 6fbe
000000a0: da6e 8fbe 8fdf 67be 11c7 653d c988 f6bd
000000b0: 4b43 a4bc 1f48 6ebe b1e8 69be c338 24be
000000c0: b42c 073e 3b90 483d aa02 3c3d 99e0 553e
000000d0: 99c3 483e b79a 8a3e 1926 9ebe c0ab 68be
000000e0: c948 b0be b4f7 9abd 8d60 1cbe dadb 68be
000000f0: 4351 8c3e 5ba4 d03e d335 903e 46e6 53bd
00000100: e54e 47bd afec cfbc 3844 02be 52e4 86be
00000110: 5206 6abe b76d 8e3d af36 623d 82f0 8ebd
00000120: 8776 123e 8bb0 243e 0dd8 343e 84d8 15be
00000130: 258a 863d 18d9 0c3d 87c5 08be c693 08bd
00000140: 4a16 f6bd d04e ef3d 1a72 8c3d 95ba 41bc
00000150: 197b 24bd 1449 2abd 3dc1 4cbc 3bcc 05bd
00000160: f131 0ebe 7dc6 29bd 7ff7 b8bd 92fb dfbc
00000170: 2475 6f3d b029 533d aa85 963d 5045 973c
00000180: fdf8 cbbd 8b42 ddbd c7b9 bebd 5158 b039
00000190: d59a 833d 9a3d aabc d1fa 46bd 5440 59bd
000001a0: 6c68 acbc 35e5 6dbd 4ef3 a7bd 575e b9bd
000001b0: 2df7 d33d b009 3f3e b8a3 ac3d 0258 923c
000001c0: b2c7 043d 2621 df3d a60c dbbd ebf3 07be
000001d0: 96ee 34be 0004 bf3d dc62 923c a495 ca3d
000001e0: 20b1 2e3d 1918 993c 29b4 d03d 7082 dd3c
000001f0: 2804 9b3a c216 3abd ac0e 2abe 4550 0cbe
00000200: 3ab7 15be 21bc c93d 2f50 4a3e 21e4 113e
00000210: ce0c 09be 6899 7c3c 0910 b53d 28bf 51bd
00000220: f0f9 b53b 9b0a 59bd 2e4a eabc 340d 9f3d
00000230: 38b8 933d 0386 c2bd 277b 9cbd cb84 6abd
00000240: 8e98 663b c086 b1bd 282c 0cbe 26a0 933d
00000250: 34ad 033d dc01 133e af93 323e 3cde 8b3d
00000260: 0731 283e 3d8e 053d 4615 883d 92be ec3d
00000270: 664c 8f3b 17d5 00be ca48 88bd a441 b5bd
00000280: c0e0 53be 7ab2 bbbd 4023 1b3d 6f65 643d
00000290: dbc9 bb3d 1940 16be bed7 b5bd a630 993d
000002a0: c0ed 9dbd aeba ccbc e7d7 f4bc 6724 bdbd
000002b0: aa68 c8bc 0031 603d b448 9abd 580f da3d
000002c0: 04a1 c23d bcf8 d3b9 e1ab 893d e3b0 623d
000002d0: 008b 82be 1961 89be 0730 72be c7af 4ebe
000002e0: e4d8 7dbd 3340 95bd 87ce 18be 39d9 08bd
000002f0: cfdd 20be 11bd 93bd 7b3c e6bd 2a94 743b
00000300: 6fd1 133e b9b2 2a3c 0be6 f23c a14e 19be
00000310: deef 18be 2e9e 23bd 4951 0ebc b67c 4ebd
00000320: a6e1 9abd 034d 803e ce3a de3d a7c8 803e
00000330: 5498 bc3d be78 8fbb 8166 37bd b4fb 00be
00000340: aa8f a8bd a371 87be 9298 0b3e 518a b2bd
00000350: b6eb 29bd 540f 023e e10c 87bd ceb5 40bd
00000360: 41aa 46be 4dbd 40be 7055 9bbd f53d 12be
00000370: 746c 4bbe c5d3 debd 6d6a 4c3d d2ab 20bd
00000380: 66bc 5bbd 0018 c6bd 48b6 a0be 232f 83be
00000390: f80d a6bd 12ff 85be 8263 29be 099f 8c3c
000003a0: d5d7 efbd 8d01 0abd c40f c33d 29ef 293e
000003b0: 4ed6 3a3e db87 023c 424c a33d f745 9f3d
000003c0: 43b8 cfbd 657f a0bc 6e8f a3bd 3dcb dabd
000003d0: a822 27be 006e 6fbe d193 81bd 7cba c9bd
000003e0: 626f 28be bce6 c63d 7202 903b 7a51 e4bd
000003f0: 9af1 a73d babd 3b3e ef29 153e 9b9f 143d

layer1.1.bn2.weight f4 [16]
1.2834866 0.8406947 0.7427901 0.966038 0.80525404 0.88397163 0.54944575 0.7852027
1.0100287 0.8194272 0.7381433 0.7790206 0.85269445 1.2284902 0.75523216 0.8689175
00000000: 4a49 a43f c537 573f 7e27 3e3f 444e 773f
00000010: 2125 4e3f f74b 623f 7aa8 0c3f 0b03 493f
00000020: 9f48 813f fbc5 513f f6f6 3c3f e56d 473f
00000030: 2f4a 5a3f 2b3f 9d3f e556 413f 6171 5e3f

layer1.1.bn2.bias f4 [16]
-0.104826614 0.21576902 0.27760193 -0.09534917 0.08627325 0.040837422 0.09548267 0.20969617
0.06116352 -0.114477746 0.20288795 -0.15798038 -0.11134556 0.29326743 -0.17185143 0.16342984
00000000: 56af d6bd 8ef2 5c3e d721 8e3e 6d46 c3bd
00000010: 08b0 b03d 2445 273d 6b8c c33d 98ba 563e
00000020: 9986 7a3d 4f73 eabd dcc1 4f3e 9cc5 21be
00000030: 2409 e4bd 2627 963e d2f9 2fbe 275a 273e

layer1.1.bn2.running_mean f4 [16]
-0.6285733 -1.605612 -1.9669187 -1.9854636 -2.016912 0.10873284 -0.6167059 -0.8219197
-1.654547 1.379264 0.101217374 -1.2252392 -0.3972903 -0.8067099 -0.4608238 -1.5868778
00000000: 2eea 20bf b284 cdbf fec3 fbbf ac23 febf
00000010: 1615 01c0 53af de3d 70e0 1dbf 5469 52bf
00000020: 32c8 d3bf b98b b03f 0e4b cf3d a3d4 9cbf
00000030: a269 cbbe 8a84 4ebf 19f1 ebbe d01e cbbf

layer1.1.bn2.running_var f4 [16]
6.4391723 7.044312 11.94129 5.408812 12.168682 7.6682987 9.126529 22.818552
6.213153 8.116294 15.095976 6.735523 10.048827 2.731582 4.2475877 11.877414
00000000: b30d ce40 016b e140 860f 3f41 fd14 ad40
00000010: ecb2 4241 b462 f540 4306 1241 658c b641
00000020: 26d2 c640 57dc 0141 1e89 7141 6889 d740
00000030: ffc7 2041 3dd2 2e40 3dec 8740 e309 3e41

layer2.0.conv1.weight f4 [32, 16, 3, 3]
-0.02767596 -0.11731786 -0.14485127 -0.0446117 -0.14042969 -0.05492176 0.009513861 0.055809792
0.09404465 0.010182386 -0.013181388 -0.12698384 -0.086146936 -0.11577979 -0.021522718 -0.010769777
0.0042476826 0.023193654 0.2118128 0.15145949 0.18464744 0.12468249 0.11903284 0.15301955
0.14173402 0.25414234 0.13858293 0.08308057 -0.07230149 -0.0025113865 0.038058065 -0.045451634
-0.07922359 0.026207924 0.04191417 -0.099511534 0.12877414 0.08947486 0.1080303 0.13817488
0.06679331 0.014896557 0.11960482 0.027532594 0.055379234 0.26438022 0.16956691 0.18098387
0.1500227 0.06144305 0.10308308 0.20785372 0.056689598 0.028295683 0.12287314 0.24239536
0.16525681 0.16325001 0.054682586 0.21051581 0.0968796 0.12799291 0.2091643 -0.0610556
-0.06484628 -0.030452663 0.023859842 0.03336211 -0.12665911 -0.001700346 -0.03616539 -0.1315404
-0.0014001781 0.014539413 0.10501027 -0.005142255 -0.014307709 0.020701924 0.0038904713 -0.024389854
-0.032929193 -0.06531137 0.008681599 -0.07465473 -0.06504318 -0.13113895 -0.052799616 -0.1342475
-0.012614141 0.006953483 -0.026289586 -0.12394473 -0.06454811 -0.13545938 -0.20298031 -0.15468441
0.04533496 -0.09843748 -0.03038926 -0.20187426 -0.09871725 -0.062186148 -0.07028408 -0.09397724
-0.08693775 -0.071133085 -0.09863816 0.036480725 -0.018354472 -0.13269563 0.01734963 0.01105548
-0.11068739 0.0027812338 -0.028061818 -0.02312872 0.008680214 -0.046700906 0.0055520507 -0.03134919
-0.016740844 -0.14029996 -0.08589369 0.06896501 -0.031597912 -0.014062422 -0.008407981 0.09657512
0.12509005 0.08289202 -0.050527148 -0.023741746 0.01169374 -0.039065797 -0.022421815 -0.17055237
-0.13656476 -0.19842392 -0.13646436 -0.18330583 -0.18405646 -0.026860032 -0.08531672 -0.0830579
-0.016598536 -0.15502174 -0.09045488 0.024896912 -0.10025919 -0.08745498 0.0055334177 -0.1918716
-0.19205423 -0.020023372 -0.031319365 -0.016807819 -0.050789326 0.008447341 0.08348197 0.0035275153
0.0639378 -0.08460117 0.08367256 0.047926374 0.05017651 -0.009242882 0.18348247 0.118019134
-0.033173162 0.09388255 -0.10536638 -0.016893657 -0.11477892 -0.023982545 -0.121969834 -0.025085108
-0.06456528 -0.06001767 -0.15880306 0.024786448 0.043198105 -0.07849882 -0.042352993 -0.12564674
-0.1134411 0.019969502 -0.26237646 -0.13175526 -0.21837829 -0.0050496273 -0.10989369 -0.022194125
0.04127426 -0.060077656 0.050091486 0.09259172 -0.06664309 -0.007893628 0.04467101 -0.03747558
-0.05879848 0.14264615 0.10900996 -0.0050087254 0.028711028 0.04521801 0.05091481 0.25353172
0.33983135 0.1707333 0.23855095 0.3090051 0.16286473 0.07774527 0.3343121 0.1876676
-0.16620511 -0.07470879 -0.039701078 -0.0018643669 -0.08136846 -0.14857906 -0.011204685 -0.083073035
-0.12145185 0.06649441 0.09642998 -0.0029729586 0.007127298 0.0101881735 0.05307447 0.002207276
-0.003279469 -0.032271 0.18776833 0.12293678 0.21293046 -0.0021337797 0.19993825 0.24145249
0.058454715 0.21247801 0.23596816 -0.08016984 -0.025833428 -0.22245388 -0.09060967 -0.02108784
-0.17209548 -0.023889408 0.069576785 -0.16071773 -0.020969674 0.15336731 -0.052319434 -0.034295563
00000000: b2b8 e2bc 5944 f0bd e453 14be c2ba 36bd
00000010: cdcc 0fbe a4f5 60bd 06e0 1b3c cf98 643d
00000020: 7b9a c03d 06d4 263c c0f6 57bc 0d08 02be
00000030: ce6d b0bd f41d edbd 6950 b0bc b873 30bc
00000040: 2530 8b3b 9e00 be3c 74e5 583e 3218 1b3e
00000050: 3814 3d3e 8959 ff3d 7dc7 f33d 28b1 1c3e
00000060: b922 113e f21e 823e afe8 0d3e 2526 aa3d
00000070: ce12 94bd 1396 24bb c6e2 1b3d 7e2b 3abd
00000080: fa3f a2bd 00b2 d63c 31ae 2b3d b4cc cbbd
00000090: 5edd 033e 983e b73d fd3e dd3d b77d 0d3e
000000a0: eeca 883d b010 743c 5ff3 f43d 098c e13c
000000b0: 56d5 623d d85c 873e f3a2 2d3e d653 393e
000000c0: 8d9f 193e b5ab 7b3d 391d d33d 9bd7 543e
000000d0: 5a33 683d 59cc e73c eaa4 fb3d 7d36 783e
000000e0: 1539 293e 032b 273e d9fa 5f3d 7591 573e
000000f0: d068 c63d 9310 033e 2b2f 563e 7015 7abd
00000100: 20ce 84bd dd77 f9bc b775 c33c b5a6 083d
00000110: edb2 01be 25de deba 2922 14bd 87b2 06be
00000120: 2e86 b7ba b836 6e3c a00f d73d 5d80 a8bb
00000130: e26a 6abc 1597 a93c 47f7 7e3b 3bcd c7bc
00000140: c3e0 06bd f8c1 85bd 443d 0e3c 94e4 98bd
00000150: 5c35 85bd 4a49 06be 6944 58bd 2d78 09be
00000160: 8bab 4ebc 0bda e33b 425d d7bc bcd6 fdbd
00000170: cd31 84bd ddb5 0abe 12da 4fbe 9765 1ebe
00000180: 27b1 393d 9799 c9bd e6f2 f8bc 20b8 4ebe
00000190: 452c cabd e7b6 7ebd 1af1 8fbd 2477 c0bd
000001a0: 6b0c b2bd 39ae 91bd ce02 cabd d06c 153d
000001b0: 1e5c 96bc 5de1 07be d020 8e3c 0b22 353c
000001c0: 12b0 e2bd 5c45 363b e6e1 e5bc 7178 bdbc
000001d0: 7537 0e3c 7349 3fbd faed b53b 0268 00bd
000001e0: 1824 89bc cbaa 0fbe 08e9 afbd 873d 8d3d
000001f0: d06c 01bd 1366 66bc a1c1 09bc 2dc9 c53d
00000200: 9b17 003e 4bc3 a93d 8ef5 4ebd 0d7e c2bc
00000210: 1a97 3f3c 7503 20bd f4ad b7bc 48a5 2ebe
00000220: a2d7 0bbe a42f 4bbe 50bd 0bbe 86b4 3bbe
00000230: 4c79 3cbe 9209 dcbc 88ba aebd 431a aabd
00000240: a7f9 87bc 05be 1ebe 6840 b9bd 9cf4 cb3c
00000250: b154 cdbd 991b b3bd ac51 b53b fd79 44be
00000260: dda9 44be 0e08 a4bc bc48 00bd 8db0 89bc
00000270: 7808 50bd b766 0a3c 98f8 aa3d e32d 673b
00000280: d2f1 823d 6143 adbd 855c ab3d 724e 443d
00000290: e285 4d3d 756f 17bc d4e2 3b3e 04b4 f13d
000002a0: 95e0 07bd 7f45 c03d 54ca d7bd 9164 8abc
000002b0: 3611 ebbd 0b77 c4bc 52cb f9bd 497f cdbc
000002c0: cd3a 84bd 17d5 75bd 459d 22be f30c cb3c
000002d0: 7ff0 303d fdc3 a0bd 557a 2dbd 8aa9 00be
000002e0: cf53 e8bd 1597 a33c 3556 86be daea 06be
000002f0: 8f9e 5fbe 5877 a5bb f10f e1bd 74d0 b5bc
00000300: 330f 293d fd13 76bd bb2c 4d3d baa0 bd3d
00000310: 2c7c 88bd 4754 01bc f3f8 363d fe7f 19bd
00000320: add6 70bd d511 123e 9d40 df3d 3c20 a4bb
00000330: 6433 eb3c 8536 393d 0c8c 503d e9ce 813e
00000340: 60fe ad3e b6d4 2e3e b346 743e eb35 9e3e
00000350: 03c6 263e ea38 9f3d f52a ab3e ef2b 403e
00000360: ac31 2abe ec00 99bd 999d 22bd c65d f4ba
00000370: 82a4 a6bd 1c25 18be db93 37bc 3222 aabd
00000380: bfbb f8bd 392e 883d 157d c53d f8d5 42bb
00000390: 1c8c e93b 4cec 263c 9e64 593d f2a7 103b
000003a0: 5cec 56bb 992e 04bd 5746 403e 47c6 fb3d
000003b0: 710a 5a3e e2d6 0bbb 9dbc 4c3e 523f 773e
000003c0: 366e 6f3d d693 593e a3a1 713e 1630 a4bd
000003d0: a0a0 d3bc f3ca 63be 9091 b9bd 68c0 acbc
000003e0: cc39 30be b8b3 c3bc 467e 8e3d 3093 24be
000003f0: 98c8 abbc 520c 1d3e e74c 56bd 8179 0cbd

layer2.0.bn1.weight f4 [32]
1.0136749 1.0596081 0.83503664 1.0783974 0.89943415 0.85469496 0.79258424 1.0049108
0.98342377 0.67147803 1.2450317 0.88387007 0.95370454 1.0274268 0.93074375 1.1321748
0.89180344 1.0364588 1.0959456 1.1226622 1.1133614 1.1336064 0.9887107 1.3266075
1.0730072 1.0956545 0.96605355 1.0801228 1.0148206 0.7598519 0.9123779 0.7962089
00000000: 19c0 813f 3da1 873f f6c4 553f ed08 8a3f
00000010: 5141 663f 4acd 5a3f cde6 4a3f eba0 803f
00000020: a9c1 7b3f fce5 2b3f 335d 9f3f 4f45 623f
00000030: fb25 743f b982 833f 3945 6e3f 1beb 903f
00000040: 3b4d 643f afaa 843f f247 8c3f 65b3 8f3f
00000050: a082 8e3f 041a 913f 251c 7d3f 46ce a93f
00000060: 4d58 893f 683e 8c3f 494f 773f 7741 8a3f
00000070: a4e5 813f a785 423f 9991 693f 59d4 4b3f

layer2.0.bn1.bias f4 [32]
0.035517607 -0.12731436 0.10327672 0.33219582 -0.047472224 -0.15178886 -0.1838631 -0.05245732
0.090841286 -0.1759663 -0.2172494 -0.15321444 0.22236341 0.18543936 -0.093793064 0.20701863
0.13365737 0.008176816 -0.24029236 0.3184934 0.14496492 -0.10628696 0.20420039 -0.19169019
0.37159577 0.008737957 -0.19396049 -0.020564849 -0.11935262 0.15120043 -0.15073611 0.121032186
00000000: e97a 113d b25e 02be bf82 d33d 9215 aa3e
00000010: 3c72 42bd 8a6e 1bbe 9c46 3cbe 7ddd 56bd
00000020: ff0a ba3d 8230 34be a076 5ebe 3fe4 1cbe
00000030: 3cb3 633e d1e3 3d3e 9416 c0bd b1fc 533e
00000040: 7add 083e 0df8 053c 330f 76be 9111 a33e
00000050: af71 143e faac d9bd e819 513e 6f4a 44be
00000060: cd41 be3e a629 0f3c 949d 46be 9d77 a8bc
00000070: 256f f4bd 49d4 1a3e 915a 1abe b9df f73d

layer2.0.bn1.running_mean f4 [32]
0.08150233 2.427493 -1.3481078 -0.8120401 -3.0794482 -0.5730019 -8.890082 -3.2424588
-8.799628 -6.501214 -1.6805488 2.597737 -1.0769441 2.3642104 1.8969519 -3.9406233
-4.204771 -4.962803 7.6600814 -1.5401696 -3.10314 1.3061634 1.0123608 -1.9441601
-3.4637675 1.4963377 -0.8195845 -8.416103 4.9081903 -2.1416388 3.3639848 -1.7541844
00000000: b2ea a63d 0c5c 1b40 cc8e acbf dce1 4fbf
00000010: ae15 45c0 41b0 12bf c73d 0ec1 7284 4fc0
00000020: 47cb 0cc1 f209 d0c0 391c d7bf 5341 2640
00000030: 4ed9 89bf 394f 1740 52cf f23f 2c33 7cc0
00000040: 7c8d 86c0 48cf 9ec0 631f f540 4724 c5bf
00000050: d999 46c0 5d30 a73f 0a95 813f 3dda f8bf
00000060: 5eae 5dc0 fe87 bf3f 4ad0 51bf 5ca8 06c1
00000070: e50f 9d40 9c10 09c0 874b 5740 1d89 e0bf

layer2.0.bn1.running_var f4 [32]
20.123621 19.881874 21.709166 35.40276 15.366782 10.971966 13.219869 16.129625
21.37439 20.469753 27.483206 15.278421 21.04994 19.782507 23.666012 45.0496
46.364742 24.98507 13.686928 22.279406 27.25843 32.95736 33.77931 44.64115
28.099482 26.660767 18.56094 17.54783 30.352686 17.81785 20.516045 36.643814
00000000: 2dfd a041 140e 9f41 5fac ad41 6d9c 0d42
00000010: 57de 7541 2c8d 2f41 9584 5341 7909 8141
00000020: c0fe aa41 0ec2 a341 9bdd db41 6a74 7441
00000030: 4766 a841 9342 9e41 fe53 bd41 ca32 3442
00000040: 7f75 3942 6ce1 c741 a8fd 5a41 393c b241
00000050: 4411 da41 56d4 0342 031e 0742 8a90 3242
00000060: bdcb e041 4049 d541 ce7c 9441 f561 8c41
00000070: 4dd2 f241 f58a 8e41 dc20 a441 4493 1242
