pth/model.pth (torch, 812245 bytes, 77 tensors)

conv.weight f4 [16, 3, 3, 3]
00000000: 2fc0 b0be 8854 a43f ccf0 703e 1760 3540
00000010: 140f febf 37b1 c33d cb47 14bf d516 c5be
00000020: 8c31 df3e e396 d4be 7f86 aebe 95c7 69be
00000030: 3e65 2a40 1ac9 7fc0 5822 ddbe 1695 a4be
00000040: 36ab 34bf b29f 143f b143 8dbf b762 383f
00000050: 4357 23bd 5d84 1f40 64b5 b9bf 1a6e 293e
00000060: 5623 4a3e 1a8f a63e d9b8 333e d6cc 833f
00000070: c43f 5abd f9aa 5b3f a1f9 b8bf 06bd 20c0
00000080: ae83 9bbf 09e0 643f 64c5 493f 5e46 a83f
00000090: 5947 3a3f 5381 bbba 1633 923f 9961 a4bf
000000a0: f417 02c0 2929 95be bc45 563f d681 ef3e
000000b0: 5833 af3f 02f3 123d 1a40 b2bf 7012 a4be
000000c0: 792a 69c0 1431 c9c0 dc6f 5cc0 c33b 92be
000000d0: 1419 8cbf d96c 4fbc 2710 983f 94e8 ff3e
000000e0: bbfc 22bf 56d5 5b40 c4fa 0640 d6ff 533f
000000f0: 1b2c cd3f 7295 d83e f3cd fabd 9f62 f43e
00000100: 3111 9dbe 7e77 32bf e14c 3f3f 0e0e a73e
00000110: 4cea 2e3e 33eb 86be 371a 1fbf 09b9 bebe
00000120: 73e7 db3e 5142 b83d a7b1 26be 980a 3ebf
00000130: bac0 a2bf 8d1c a2bf f1a1 debf 58e3 10c0
00000140: 4bde 0ec0 e4f6 82bf 57f7 ba3f 439c a63b
00000150: b858 00c0 9835 da3d 13b3 0fbf 73e6 71bf
00000160: c8d2 f3be 5165 91bf 6b8b 18be 7df9 3340
00000170: 51fb 4a3f 9206 83bf 24e3 2840 1b52 c73f
00000180: ba7b 613e 690f e33f f64f ad3f 55d5 d0bf
00000190: a057 443f a6b9 0d3f e590 69c0 8576 04bd
000001a0: 3f72 b0be 627d d2bf 5a51 f4be 77ab 94be
000001b0: 29fb cabf 5e56 46c0 0fb7 cfbf d3ba 913e
000001c0: a8b2 efbe 5080 003f cf3f cf3f 1e3b 4c40
000001d0: d4ce e23f e23e 263f a93e f63d b004 3a3f
000001e0: a8d0 5ebe 419f 37bf 39d3 35be 4625 28bf
000001f0: fded 0abf 8e9e 35bf e2ec fc3f 3d8e ec3f
00000200: f3c5 9a3f 59c4 e43e 3e0b 943c 4cbd 673c
00000210: 2881 b0bf 8a31 c6bf cb86 edbf b444 e1be
00000220: a877 193e 732c 863f 7217 97bf 6023 ecbe
00000230: 7488 a1bd 4a9b d3bf 7445 77bf 98be 9fbe
00000240: d4d1 b5bf ae43 6ebf 41f6 87bf 7061 4cbe
00000250: 34fa 4a3f 86e6 1ebf 369d 1ebf 6fcf d83d
00000260: 69c0 1ebf d112 3ebf 50be 9ebc 6d68 c7bf
00000270: e170 2f40 de0f 9640 eacd bb3f 02d0 d73f
00000280: a40d 1340 c88f 923e bd07 733f 1ca7 af3f
00000290: de03 e53e 319d 91be a0ec 4abe b46e 61bf
000002a0: e64c f0bd d7e0 c5bf 40f1 4cbf 0cdf 2b40
000002b0: 7b07 6440 bf75 0340 808a 7b3e d5af 203f
000002c0: a218 b5be 071d 8dbf 18b1 1bc0 ca45 f1bf
000002d0: 172c 703f 22ff b63f c660 663f 3081 fbbe
000002e0: fad5 53be 09da fbbe 8bf9 6bbf 08f3 00c0
000002f0: 6a66 80bf 27d2 683e 35fc ccbe 2565 16bf
00000300: fe71 1ac0 a756 be3e 6456 0e40 f9fa 83bf
00000310: d9a5 503e 906b 583f 4080 ca3a 8275 49be
00000320: 9192 093f 0e41 50c0 5372 80bd 0991 4040
00000330: a9a4 b3bf 5072 6fbe 6c59 8f3f ec5b a83e
00000340: 62f6 54be a28b 47be a5ac 2ec0 1b66 0c3f
00000350: 6cb8 1440 699b 94bf da45 0a3f d814 7f3f
00000360: 2e50 9e3f 645a f63f f9ae 363e 8fe2 e53e
00000370: a41d 4c40 c6cb a43f ead6 33bf 7397 b93d
00000380: 72ae 2ebf c713 d2bf d382 cbbf 7d7a 03c0
00000390: 1a90 06c0 b3f8 e7bc 75f1 35be 51bb 4ebf
000003a0: f29e 79bf 5550 0bbf ec91 52bf 12bf 283e
000003b0: d7ca 83be 3c9b 8ebf 5fd8 fe3f 762e 1540
000003c0: 1b2e 15be 0e0f 9a3f 07d4 c33f d085 a33f
000003d0: 5c47 7e40 3ade 4b3f 8ade 16c0 b088 abbe
000003e0: 48dc 2f3f fc17 90bf 92bd d7bf 4e34 a03e
000003f0: 968c 0f3f 426c ca3f 487f 40bf 8cfc 18c0
-0.34521624 1.2838297 0.23529357 2.8339899 -1.9848351 0.095552854 -0.5792205 -0.38493982
0.4359249 -0.41521367 -0.34086987 -0.22830041 2.6624293 -3.9966493 -0.43190265 -0.32144994
-0.7057375 0.58056176 -1.1036283 0.72025627 -0.03987814 2.4924538 -1.4508481 0.16545907
0.19740042 0.32531053 0.17550983 1.0296886 -0.053283468 0.8580776 -1.4451181 -2.511537
-1.214956 0.8940435 0.7881682 1.3146474 0.7276512 -0.0014305509 1.142184 -1.2842284
-2.032712 -0.29132965 0.83700156 0.46778744 1.3687544 0.03587628 -1.3925812 -0.32045317
-3.6432173 -6.287241 -3.4443274 -0.2856122 -1.0945153 -0.012660229 1.1879929 0.4998213
-0.63666886 3.434896 2.1090555 0.8281225 1.6029085 0.42301518 -0.12246313 0.47731492
-0.30677179 -0.6971358 0.7472668 0.3262791 0.17081565 -0.26351318 -0.62149376 -0.37250546
0.4295002 0.08997024 -0.16278706 -0.74234915 -1.2715065 -1.2664963 -1.739317 -2.263876
-2.2323177 -1.0231595 1.4606732 0.005084546 -2.005415 0.106547534 -0.5613262 -0.9449226
-0.4762175 -1.1359044 -0.14896934 2.8121026 0.7928973 -1.023638 2.6388636 1.5571932
0.22019854 1.7739078 1.3540027 -1.6315104 0.76696205 0.553614 -3.6494687 -0.03233959
-0.34462163 -1.6444514 -0.47718316 -0.29037067 -1.5857898 -3.0990214 -1.622774 0.28462848
-0.4681599 0.5019579 1.6191348 3.1911082 1.7719369 0.649397 0.1202367 0.726634
-0.21759284 -0.7172738 -0.17756356 -0.65681875 -0.5426939 -0.7094506 1.9759791 1.8480908
1.2091659 0.4468105 0.018071767 0.014144253 -1.3789415 -1.5483868 -1.855676 -0.4399773
0.14987051 1.0482315 -1.180403 -0.4612074 -0.078873545 -1.6531765 -0.9659035 -0.312001
-1.420466 -0.9307202 -1.0622026 -0.19959044 0.7928803 -0.620705 -0.61958635 0.1058644
-0.62012345 -0.7424746 -0.019377857 -1.5578743 2.7412646 4.689437 1.4672215 1.6860354
2.2977076 0.2862532 0.9493368 1.3722873 0.44729513 -0.2844024 -0.19816828 -0.88059545
-0.11733417 -1.5459241 -0.8005562 2.6854887 3.5629566 2.0540617 0.24564552 0.627683
-0.35370356 -1.1024483 -2.432684 -1.8849423 0.93817276 1.429661 0.89991415 -0.49122
-0.20687094 -0.49189785 -0.9217765 -2.0148335 -1.0031254 0.22736417 -0.4003617 -0.58748084
-2.4132075 0.37175485 2.2240229 -1.0310966 0.20375766 0.8453913 0.0015449598 -0.19673732
0.5373927 -3.2539706 -0.062718056 3.0088522 -1.4034625 -0.2338345 1.1199164 0.3288263
-0.20797113 -0.1948686 -2.7292874 0.548433 2.3237562 -1.1609927 0.54012835 0.9964118
1.2368219 1.9246335 0.17840184 0.44899413 3.1893091 1.2874687 -0.7024981 0.0906209
-0.6823493 -1.6412286 -1.5899299 -2.054351 -2.1025453 -0.028316831 -0.1776789 -0.8075457
-0.97508156 -0.5441945 -0.8225391 0.16479138 -0.25740692 -1.1141124 1.9909781 2.3309608
-0.14568369 1.2035844 1.5299081 1.2775211 3.9731054 0.79635966 -2.3573327 -0.33502722
0.686955 -1.125732 -1.6854727 0.31289905 0.5607389 1.5814288 -0.75194216 -2.3904142

bn.weight f4 [16]
00000000: bc89 8840 2856 ea3f 7051 263f 38b3 b43f
00000010: 3622 883f be3b 5c3f 60b5 b83f 618f 1a40
00000020: c9d4 b63f 4aad 1b40 5ec3 2e3f 6e46 ea3f
00000030: 3409 953f d1ab db3f 0b8b 683f c698 d13f
4.2668133 1.8307543 0.64968014 1.4117193 1.063544 0.8602866 1.4430351 2.4150012
1.4283687 2.4324517 0.68266857 1.8302743 1.1643434 1.7161809 0.9083716 1.6374748

bn.bias f4 [16]
00000000: e5f0 9240 95f5 e2bf 4d06 82bf e4d1 51bf
00000010: 538e 5abe 0d60 e43e 4c4a 5a3f f861 b83f
00000020: c329 993f a990 1740 2384 e1bf 836c babe
00000030: 8031 87bf dafd acbf 8721 1a3f 0214 9d3f
4.591906 -1.7731196 -1.0158173 -0.8196089 -0.21343355 0.4460453 0.8526962 1.4404898
1.196587 2.3682044 -1.761845 -0.36410913 -1.0561981 -1.3514969 0.6020741 1.2271731

bn.running_mean f4 [16]
00000000: 9d4a edbd 2a1c c3c0 14ba 5b3e 623e aebe
00000010: f048 f5bd f504 303f e8fb 573e e97f 86be
00000020: f55b 433f a0b0 52bd 32fb cac0 1b47 f4bf
00000030: 93c3 df40 8cb4 c4c0 2708 90bf 69f6 3b3f
-0.11586497 -6.097188 0.21457702 -0.3403197 -0.11976802 0.68757564 0.21092188 -0.26269463
0.7631219 -0.051437974 -6.3431635 -1.90842 6.992624 -6.1470394 -1.1252488 0.7342287

bn.running_var f4 [16]
00000000: 2d52 393f a10c a941 a999 5440 0ff5 4b40
00000010: 82e9 893e 0f4d 2e40 4fb2 ef40 8a93 9440
00000020: 747c d93f 4838 a13f 6516 7541 fa7f 5d40
00000030: 4b69 b641 8feb 9241 c1f0 4f40 2df0 a240
0.72391015 21.131166 3.3218787 3.1868322 0.26935965 2.7234533 7.490516 4.64301
1.6991105 1.2595301 15.317967 3.460936 22.801413 18.365019 3.2490695 5.0918183

layer1.0.conv1.weight f4 [16, 16, 3, 3]
00000000: 3db9 92bf 1dad 6bbf 76c8 79be b05e 533f
00000010: a012 8abe 9a8d 123f f6ea e13f dd15 b5bf
00000020: 9fa5 b13e 559d 68be be42 88be cc4c 10bf
00000030: 5fcb c3be 8093 54bd 86ec c6be b8fe e03e
00000040: e7bd 073f 79d9 583f eaba a8c0 c2bc 77c0
00000050: 5620 91c0 410b bcc0 9409 95c0 378c 90c0
00000060: cbdf 87c0 b6d2 4fc0 c1ee 2cc0 be3c 22c0
00000070: bda7 91be f617 3d3f 9596 0bc0 dd16 a2be
00000080: 15a7 c8bf 6563 42c0 33ac 16bf acae 37c0
00000090: 1c17 a63e bae3 0c3f c0b4 183e d4a5 e93d
000000a0: e26d 123f 35a1 fc3e 184f 2bc0 e04c 03c0
000000b0: 524c ddbf 1390 dabf 68cb d4bf ee09 f5bf
000000c0: 423f 18c0 c89e 24c0 e735 20c0 1ab6 e6bf
000000d0: 929b 0cc0 d5de 10c0 750b 02c0 d146 19c0
000000e0: f39f 85bf a11f 433e f9fd 09bc be17 9dbe
000000f0: df5a 803f 84bb 803f 6ecd 553f 7e9b 7cbe
00000100: 9ac4 7c3e fe14 593f f580 f63b fd03 7b3f
00000110: 598b 3f3e d397 083f d608 a73f 7514 09bf
00000120: 9cf9 7cc0 b057 2ec0 2320 88bf f43f 9fbf
00000130: fd58 13bf b98b b93e 0691 74be b8c4 873e
00000140: 0fdd 1a3f a95c 30be cf93 f8bf 2360 afbe
00000150: 1282 96bf 7f93 12c0 63c3 edbf 9cfc 233f
00000160: db96 873f 1de1 953d dd1c 3f3e 8c1d 52bd
00000170: 5ffe 373c f094 083f 4d50 403e 0abd d83d
00000180: 5c40 923e f73f 85bd a803 3dbe 0537 2a3f
00000190: 0e75 a13f 92ed 9d3f e434 1ec0 b4e6 94bf
000001a0: ccc6 ee3d 5bc5 c7bf e0a2 b2bf 1e2d 2e3d
000001b0: f3f5 5b3f 36a8 c93f 3300 893f 5071 e2bf
000001c0: bd2b 4fbf 6bfb 2fbf c1a5 83bf 9597 1bbf
000001d0: 9945 8cbd 0843 4f3f e94e e83e 6ae7 21bc
000001e0: 729f 8ebf 0090 dfbf e32c cdbf 8f0b 6dbe
000001f0: 6e4a 1fbf f981 f9bd 4486 8f3f 088f 053f
00000200: 3aa3 ea3e d8c9 babf 7450 d5bf 8a73 11c0
00000210: 1d60 07c0 2456 f8bf 6080 16c0 0d50 583f
00000220: 53ce ca3f e938 123f 9389 a93c 476b 233f
00000230: fe7e 50bd cdd8 6bbf 8861 28bf 69a8 60bf
00000240: 1ea9 e0bb a89a 45bf 5668 94be cf69 143e
00000250: ac21 8f40 830e 5c3e 8145 1e3d 2b52 5dc0
00000260: 04b4 bf3e b1f2 ec3e 22fb 6c3f 1e5c 933f
00000270: e1b4 b6bf 90d0 b83e c62a f93f d4a5 cfbd
00000280: ebda 2b3f 1d98 953e 7365 ad3f 97f5 2c3f
00000290: 81de 093f 6ddf 3e3f d6cf 703c 53f5 ccbd
000002a0: daf5 783f 3f31 913e f990 b3bd 9ab2 72be
000002b0: 2dba 90bf 62b2 5d3f 4cfd b6bc ce7e 7fbe
000002c0: 2e71 f9be 25fd 75be c3c4 973d cc46 4ebf
000002d0: c6ba 19c0 91d2 acbf 1b73 333e 9c95 8c3e
000002e0: e188 6a3e 4c9a 10bf ba98 7a3f 1c3a 3fbf
000002f0: 0a31 b3bf 4eee dc3f 3340 db3d d056 84bf
00000300: 48b2 ef3f fb90 163d db5a f1bf 9bc2 753f
00000310: b028 0e3d 0031 32bf 7d83 f9bf ac39 533d
00000320: 29a8 da3f c1f8 293f 8585 5fba 955e 49bf
00000330: 495e 0940 5f1f abbd 9a15 38c0 7931 d2bf
00000340: f78d e4bb 314e 98bf 5b32 c7bf c4bc 2fc0
00000350: 8bd4 2cc0 a815 e13f 6ed7 3940 41d7 d33f
00000360: e98f 5e3e 5dbd 03bf c75c c8bf d014 de3e
00000370: d1e3 eebf 53cb 48c0 7753 7c3f b5c4 393f
00000380: 2368 643f ae0b de3f 1d49 bd3e ab06 b9bf
00000390: b132 abbf f832 95bf 7c37 fb3f b7d5 0440
000003a0: 4f17 df3e 7154 d6bf 44a9 be3e 663c 563e
000003b0: 40c7 21bd eef5 013d ed0e 03bd a50a 5abd
000003c0: d873 af3e aa7f 5e3e 5110 163f 289f 9e3e
000003d0: e8e0 6a3f e606 4c3e f200 b3bf bbc7 4b3e
000003e0: 332e 873f 6197 e83d bd35 95be 1ea6 97be
000003f0: a15c d33e a613 48be ac62 30bf 93fd 0b40
-1.146278 -0.92061025 -0.24392876 0.82566357 -0.26967335 0.57247317 1.7649829 -1.4147297
0.3469667 -0.22716267 -0.2661342 -0.5636718 -0.38241097 -0.05189848 -0.38852328 0.43944335
0.53024143 0.84706837 -5.2728167 -3.8708959 -4.5351973 -5.876374 -4.657419 -4.517116
-4.2460685 -3.2472358 -2.7020724 -2.5349574 -0.28448287 0.73864686 -2.1810658 -0.31658068
-1.5675989 -3.0373166 -0.58856505 -2.8700361 0.32439506 0.55034983 0.149127 0.11408582
0.5719892 0.4934174 -2.6767025 -2.051567 -1.7288916 -1.7075218 -1.6624575 -1.9143655
-2.378861 -2.5721912 -2.50329 -1.8024323 -2.1969953 -2.2636006 -2.0319493 -2.3949473
-1.0439438 0.19055034 -0.008422368 -0.30682176 1.0027732 1.0057225 0.83516586 -0.2466869
0.24684373 0.84797657 0.007522697 0.9805296 0.187055 0.53356665 1.3049572 -0.5354684
-3.952735 -2.724102 -1.0634807 -1.2441392 -0.5755766 0.36239412 -0.23883447 0.26517272
0.6049356 -0.17222847 -1.9420108 -0.34253034 -1.1758444 -2.2902524 -1.8575252 0.64057326
1.0592912 0.073183276 0.18663354 -0.05129771 0.01123008 0.5335226 0.18780632 0.10582931
0.28564727 -0.06506341 -0.18458426 0.66490203 1.2613847 1.2338126 -2.4719782 -1.1632905
0.11659011 -1.5607103 -1.3955956 0.042523496 0.85922164 1.5754459 1.0703186 -1.769083
-0.80926114 -0.6874301 -1.0284959 -0.6077817 -0.06849212 0.80961657 0.45372704 -0.009881834
-1.1142409 -1.746582 -1.6029323 -0.2314894 -0.62222946 -0.121829934 1.121285 0.52171373
0.45827657 -1.4592848 -1.6665177 -2.272677 -2.1152413 -1.9401288 -2.3515854 0.8449715
1.5844215 0.5711809 0.020695483 0.6383557 -0.05090236 -0.92127687 -0.6577382 -0.87756974
-0.006856098 -0.7718911 -0.28985852 0.14493488 4.4728603 0.21489911 0.038640503 -3.4581401
0.3744203 0.4627891 0.925707 1.1512487 -1.427395 0.3609662 1.9466178 -0.10139051
0.6713092 0.29217616 1.3546585 0.6756224 0.5385514 0.7455967 0.014697989 -0.100077294
0.9725014 0.28357884 -0.08767886 -0.23700944 -1.1306816 0.86600316 -0.022337578 -0.24950716
-0.48719162 -0.24022348 0.07410576 -0.8057678 -2.4020247 -1.350176 0.17524378 0.27457893
0.22903778 -0.5648544 0.9788929 -0.7469804 -1.399934 1.7260225 0.107056044 -1.0338993
1.8726282 0.036759358 -1.8855852 0.9600007 0.03470677 -0.6960602 -1.9493252 0.051568672
1.7082568 0.66395193 -0.0008526671 -0.78659946 2.1463797 -0.08355593 -2.8763185 -1.6421348
-0.0069749313 -1.1898862 -1.5562242 -2.7458963 -2.7004726 1.7584734 2.9037738 1.6550065
0.21734585 -0.5146082 -1.5653313 0.43375254 -1.8663274 -3.13741 0.9856486 0.72565776
0.892214 1.7347314 0.36969844 -1.445516 -1.3374845 -1.165618 1.9626307 2.075544
0.4357247 -1.674452 0.37238514 0.20921478 -0.03949666 0.031728677 -0.031996656 -0.053232808
0.3426807 0.21728387 0.58618647 0.30980802 0.9174943 0.19924507 -1.3984663 0.1990041
1.0560974 0.11356998 -0.29142562 -0.29618925 0.41281608 -0.19538745 -0.6890056 2.187352

layer1.0.bn1.weight f4 [16]
00000000: f1f2 b43f 078a 0240 5485 9d3f 8836 1240
00000010: b446 0840 7e07 ef3f e20e 1e40 4219 3140
00000020: c61f 3b40 b068 e33f 906b 903f 5801 1740
00000030: 7327 c93f f5fc 2240 1765 4740 4377 3f40
1.413664 2.0396745 1.2306314 2.2845783 2.1293154 1.8674161 2.4696584 2.7671666
2.9238143 1.7766323 1.1282825 2.359457 1.5715164 2.5466893 3.115545 2.9916542

layer1.0.bn1.bias f4 [16]
00000000: bd22 12bf cffa abbe 941e babf 8b42 35bf
00000010: 2e59 78be ce46 aebf 3bf9 22be ea21 613f
00000020: 36cb 95bd d7dd 35bf 76c6 3ebe 5f82 7abd
00000030: 460d 82be 1ceb 26c0 be3a a63f 7cf1 17bc
-0.57084256 -0.3358979 -1.4540582 -0.7080466 -0.2425277 -1.3615358 -0.15915386 0.87942374
-0.0731415 -0.71041626 -0.18630394 -0.061159488 -0.25400752 -2.6081 1.2986677 -0.009273883

layer1.0.bn1.running_mean f4 [16]
00000000: 823c 3fc2 585e efc0 f848 a141 b0e5 e2c1
00000010: 43ad f6c1 5886 26c2 6e63 fec1 b7a5 21c2
00000020: 6152 0ec0 6010 b2c1 03d9 3e42 7f9f 2ec0
00000030: 3a81 84c1 75b9 a540 39e3 1bc1 dfb9 31c1
-47.80909 -7.4802666 20.16063 -28.362152 -30.8346 -41.631195 -31.79855 -40.41183
-2.223778 -22.257996 47.711926 -2.7284849 -16.563099 5.178889 -9.742974 -11.107879

layer1.0.bn1.running_var f4 [16]
00000000: 7361 4a44 b79b fc43 9ace a344 f3a6 f044
00000010: 8807 e443 501a 5144 ba6b a344 7688 1944
00000020: d3bb f344 78d4 8944 10cf 8244 d855 d044
00000030: a0bd 8343 6efd ff43 7446 9844 23e6 fb44
809.52264 505.21652 1310.4563 1925.2172 456.05884 836.41113 1307.3665 614.1322
1949.8695 1102.6396 1046.4707 1666.6826 263.48145 511.97992 1218.2017 2015.1918

layer1.0.conv2.weight f4 [16, 16, 3, 3]
00000000: 898b 3d3f ad76 a23e b362 2ebf 6bdc 063e
00000010: f5f7 f43e ab25 d3bf 8d10 fcb8 0a03 043e
00000020: 51f4 b0be 0720 623e 9f9e 99bf 720a 473d
00000030: d40f 11c0 f39b 8bbe 8f05 71bf e8e8 8ebe
00000040: a1c6 a8be 5ea1 31be 7e80 7240 4911 d43e
00000050: af7b 05c0 3dda 3c3f 07e3 16c0 2865 0bc0
00000060: ecf6 fcbf 33eb 29c0 b28e f5bf 62e0 a2bf
00000070: 3bdc 4f3f fcac abbf 3bfa 513f 8b80 153f
00000080: d0fa c6bf 4c99 2f3f e619 ac3d 1f12 0dc0
00000090: 5666 0ac0 8846 3140 17b6 09bf ba17 803f
000000a0: a612 443e d709 6abf 0230 33bf 9bb3 1440
000000b0: 99c4 bebe b455 c1bf d4b6 a13f b12c 9bbf
000000c0: f940 bbbf 11d7 4e40 fce9 98bc 4f7b 8e3f
000000d0: ab29 8340 5ef6 fe3f 7c39 dfbf 2da5 53bf
000000e0: 5900 17be df5a adbe d841 b13f a8c8 59bf
000000f0: e076 a13f 45bb f63f 565d c13e 89c6 a1bd
00000100: 0659 f23f 0418 853f 0b5c 8740 e5b6 8dc0
00000110: 0720 b83f b0bf 4c3f 4d0e 44bf 72f3 be3d
00000120: 2f11 62bf c873 e03e 0399 0ebe 4aba 2540
00000130: 6416 dd3e cc69 963f 067d eabe cc64 5a3f
00000140: 90e4 dcbf 3ef9 2ebf e5cd ebbf 529a d9bf
00000150: 624b 17be 2e21 72bf b885 68bf ad2e 803f
00000160: 5d63 c33e 1def c8bf 9d7d 83bf f666 6abf
00000170: 3540 a8bf fe84 c6bf 33f8 4fc0 f600 a4bf
00000180: ba97 abbf 98a5 22bf 0174 30bf 1719 bbbf
00000190: d533 c03f e609 09bf bee8 1940 fb77 2740
000001a0: af2c 2f3e 08db 86bf 0261 1740 c5c6 83be
000001b0: 05e1 c2bd ec33 1a3f 5bda 50be 33d0 0040
000001c0: ac86 b0bf 1c8a d43e 3788 513f 8b38 babf
000001d0: 653f 8c3e aac6 d13f 2379 23c0 03b0 6d3f
000001e0: b579 cf3f 740e 44c0 3d41 653f 7b65 e03f
000001f0: e554 06c0 a03c 9c3f c318 b13f f26b 8fbf
00000200: b4b2 5d3f 511d 42be b441 553e cd62 26bf
00000210: 1c4d bd3e eaaf 7d3f 7ad2 0bc0 4f62 b1be
00000220: 8616 94bf 8eb1 a3bf 9811 0840 3c04 6bbf
00000230: bef2 ef3f 53fa f6bd 3d69 72bf 0050 be3e
00000240: e10f 91bf 5195 edbf df40 e4bf 81ee 0dbf
00000250: 6a9a 0abf f7a0 a2bf f5f3 c0be 89b1 5e3f
00000260: 0e69 04be bf73 f53f 6804 693f 402b 49bd
00000270: f5f7 fd3f 7fee ae3e 816a 0dc0 e482 3b3f
00000280: 9b97 51bf c58e b6be 067a 253e 3668 9fbf
00000290: 7055 d2bf 065d e2bf 55f3 f7bf bad3 0dc0
000002a0: 1f68 ca3f 26a9 0140 8ae3 b73f 90b8 e93f
000002b0: 0cee 52bf 187c 91bf b6ff 6a3f 4556 7fbf
000002c0: af26 cabf 2894 18bf 7435 39bf e59f a4be
000002d0: 04ab 3bbf bf3a 03bf 73af 29bf 5fac 8e3f
000002e0: d31b 3a40 57fa 703f c8ff d33f f63c f83f
000002f0: d6b2 b83c 844a 07bf f38f c63f b184 62bd
00000300: 0ce6 1ebf 0ae0 e7be a966 dabf 429d a2bf
00000310: 1a1f 32bf ea40 64be cc1b 2a40 be16 4540
00000320: 277f 0f3f 3e9e fa3d 38e6 243f 288c abbd
00000330: 6ef9 5abf b609 8cc0 4071 83bf d715 763e
00000340: f185 9f3e 6d0f cfbe 67a1 4ebf 5e4c 21bf
00000350: f327 3abf e3e4 fcbd 11bf 0340 d0f0 10be
00000360: 0bb4 e73e b80d fd3f 6dc4 2840 1b1f 64c0
00000370: 0968 66bf b247 02c0 782f 5dc0 b8dc 96bf
00000380: 10b1 9bc0 11e2 5abf e6ba 483d 990c c1bc
00000390: c38d 993f db7b b33f c7a1 2b3d 0331 173f
000003a0: ebf5 8d3d 352d aabe df35 54bf 8f75 6bbf
000003b0: 64d5 76bf 8d40 193d 91d9 a0bd 6e3f 20bf
000003c0: 3ecd e23e 4128 c63e 75b1 37bf 2563 da3f
000003d0: d8da c13f 1f74 263e 4927 28c0 df29 07bf
000003e0: 7784 043f 66f4 2dbf 1c3f 8cbf 8435 f2bf
000003f0: dccd 1bbf 8d19 96bf 824a 35bf 9080 aabf
0.7404104 0.31731167 -0.68119353 0.1317002 0.47845426 -1.649587 -0.00012019379 0.12891784
-0.345614 0.2208253 -1.2001532 0.048593946 -2.266591 -0.27267417 -0.94149107 -0.27912068
-0.32964042 -0.17346713 3.7890925 0.41419438 -2.085674 0.73770505 -2.3576066 -2.178049
-1.9762855 -2.6549804 -1.9184172 -1.2724726 0.8119542 -1.3412166 0.82022446 0.58399266
-1.5545292 0.6859329 0.08403377 -2.204231 -2.162496 2.76993 -0.5379347 1.0007241
0.19147739 -0.91421264 -0.6999513 2.3234622 -0.37259367 -1.510428 1.263392 -1.2123014
-1.4629203 3.2318766 -0.01866626 1.1131381 4.0988364 1.9918935 -1.7439418 -0.82673913
-0.14746226 -0.33858392 1.3848219 -0.850718 1.2614403 1.92759 0.37766522 -0.07899196
1.8933418 1.0397954 4.2299857 -4.428576 1.4384774 0.7997999 -0.7658432 0.09323777
-0.8830747 0.43838334 -0.13925557 2.5894952 0.43181145 1.1751037 -0.4579851 0.85310054
-1.7257252 -0.68349063 -1.8422209 -1.700022 -0.1477485 -0.9458188 -0.9082904 1.0014244
0.38161746 -1.5697972 -1.0272709 -0.91563356 -1.3144594 -1.5509336 -3.2495239 -1.2812793
-1.3405678 -0.63533926 -0.6892701 -1.4617032 1.5015818 -0.5353073 2.4048305 2.616698
0.17106889 -1.0535593 2.365296 -0.25737587 -0.09515575 0.60235476 -0.20395796 2.0127075
-1.3791099 0.4151162 0.8184847 -1.4548506 0.27392116 1.6388752 -2.5542686 0.928467
1.6209017 -3.0633821 0.8955267 1.7530969 -2.0989316 1.2206001 1.3835682 -1.1204817
0.86600804 -0.18956496 0.20825845 -0.6499451 0.36972892 0.9909655 -2.1847215 -0.34645316
-1.1569374 -1.278856 2.1260738 -0.91803336 1.8745954 -0.12059464 -0.9469183 0.3717041
-1.1332971 -1.8561193 -1.7832297 -0.55442053 -0.5414187 -1.2705373 -0.37686124 0.8698965
-0.129307 1.9175948 0.9102235 -0.049113512 1.9841295 0.34166333 -2.2096255 0.732466
-0.81871957 -0.356558 0.1615983 -1.2453678 -1.6432323 -1.7684639 -1.9371134 -2.2160478
1.5813025 2.025949 1.4366314 1.8259449 -0.8239448 -1.1365995 0.91796434 -0.9974101
-1.5793055 -0.5960107 -0.7234719 -0.3215324 -0.73307824 -0.51261514 -0.6628334 1.1146353
2.9079483 0.9413199 1.6562433 1.9393604 0.022546213 -0.52848077 1.551268 -0.055302326
-0.62069774 -0.45288116 -1.7062579 -1.2704241 -0.6957871 -0.22290388 2.6579466 3.079513
0.56053394 0.122372136 0.64413786 -0.08376342 -0.8553685 -4.3761854 -1.0268936 0.24031769
0.31156877 -0.40441456 -0.8071503 -0.6300715 -0.7271721 -0.12348344 2.0585368 -0.14154363
0.4525455 1.9769812 2.6369889 -3.5643985 -0.90002495 -2.035626 -3.4560223 -1.1786108
-4.865364 -0.855012 0.049006365 -0.023565577 1.1996387 1.4022173 0.04190233 0.5905916
0.06931671 -0.33237615 -0.828947 -0.91976255 -0.9641936 0.037415076 -0.078539975 -0.62596786
0.44297212 0.38702586 -0.7175515 1.7061507 1.5144911 0.16255234 -2.6273978 -0.52798265
0.51764625 -0.6795105 -1.095676 -1.8922582 -0.6086099 -1.1726547 -0.70816815 -1.3320484

layer1.0.bn2.weight f4 [16]
00000000: 6d77 0e40 1d4a 4040 9b12 9040 2de1 4340
00000010: 895e 4740 dac5 f23f 7cd1 7940 3bb7 3440
00000020: 5874 b33f 670e f93f c19e 4340 83c1 3b40
00000030: cb9c f13f 85a1 6d40 6f36 933f 5223 ce3f
2.2260392 3.0045235 4.502271 3.0606186 3.115145 1.896663 3.903411 2.8236835
1.401988 1.945752 3.0565646 2.933686 1.8875974 3.7129834 1.1500987 1.6104529

layer1.0.bn2.bias f4 [16]
00000000: 00dd 93bf b0ee 40be 8000 e3be 0f07 8fbe
00000010: 1b3c 4dbd 8664 813f 5c18 35bf 4d1f edbe
00000020: c66c 19bf bf80 41be 6c5b b9be 783f 4b3f
00000030: 68c8 723f 5f17 06bf 9ded 303f ddfa 6a3f
-1.1551819 -0.18841052 -0.4433632 -0.27935073 -0.05010615 1.0108802 -0.70740294 -0.46312943
-0.599316 -0.18896769 -0.36202562 0.7939372 0.94837046 -0.5237941 0.6911257 0.91789037

layer1.0.bn2.running_mean f4 [16]
00000000: 3541 6240 8995 a8c1 5c80 0ac2 6329 cac0
00000010: 06fc d0c1 96ff cdc1 a855 cac1 7d45 e8c0
00000020: 5a3d 4dc1 3848 cec0 2a8c 9bbf 4f09 c3c1
00000030: f95a 6641 7574 1dc2 c6b1 3341 0531 bbc0
3.53523 -21.073015 -34.62535 -6.317552 -26.123058 -25.749798 -25.291824 -7.2584825
-12.827478 -6.446316 -1.215215 -24.379545 14.39721 -39.363728 11.230902 -5.849734

layer1.0.bn2.running_var f4 [16]
00000000: 3171 f343 617d 9344 d388 e444 a6b5 6a44
00000010: f0f1 b244 786a c844 5b50 b644 3b83 3444
00000020: be95 0844 a870 3344 3c0b 8044 ae2f 9944
00000030: e7a5 7644 32f3 be44 788c 3044 114e ad44
486.8843 1179.9181 1828.2758 938.83826 1431.5605 1603.3271 1458.5111 722.0505
546.3397 717.76025 1024.3511 1225.49 986.5922 1527.5999 706.1948 1386.4396

layer1.1.conv1.weight f4 [16, 16, 3, 3]
00000000: f42a 11bf ac3a c23d c877 fdbf 54cc 163f
00000010: 9a5e ffbd f3b8 22c0 b9ae 273f 8c1b 4dbf
00000020: 1b95 08c0 08d0 c7bf 814e 2e3f 3200 973f
00000030: 8c22 21bf e090 c33f a588 ab3f 30ea 413f
00000040: a28a 2a3f 1f7b c7bd d012 dcbf 896f ce3e
00000050: 4492 e03f 2daa 04c0 cd50 963f df83 8440
00000060: de1d 8fbf 9971 fd3f dc3a a040 dead f6bf
00000070: 6b6f 2abf 874b e83f 4678 2ec0 307d 9cbf
00000080: b89b 14bf 54f1 28c0 74c0 08c0 6ee5 6dbf
00000090: 1cbc 18c0 b38d b2bf 8f92 5fbf 9b21 81bf
000000a0: a5bd 38bd b6b6 493c 11d4 9c3f 0f76 fc3f
000000b0: 4968 ef3f 76ea cebe 91bb 933e bde7 943f
000000c0: 6093 4abf dae0 603d b5ed ac3f cd89 67bd
000000d0: a507 803f 53cf 1540 8cfb 953e 2f7d 36be
000000e0: cd2c f2bd a74d 0240 5291 b13f ecea f63e
000000f0: d6bf 183f 9f04 603f f800 403f 0af2 a3bf
00000100: ac4c d7bf cb7c 33bf 4611 c4be c9d5 27bf
00000110: 8be5 20be 5ea4 65bf e63f 81bf db4c d4bf
00000120: 40fb 1fc0 52b6 26c0 a33a 29c0 a926 e9bf
00000130: 1e56 cabf e598 92bf 8b10 993e 6e30 2c3f
00000140: 0d2c a53e 04f6 a5bd 2caf c1bf d870 b9bf
00000150: 87ff 343d ef7e 98bd 5c64 5a3e 280a 6c3e
00000160: 207c a43e 4f44 423f a1a8 ee3e 63e2 86be
00000170: 3d9c 4fbf 02cb 603f fa2d 233f 1565 c7bf
00000180: 78c7 c33f 5752 bc3f 59d8 b5bf 63de ac3f
00000190: fa36 953f e3c4 533f f706 13be 71d9 31bf
000001a0: 3e16 abbf c6e4 5fbf 5bd7 8abf ec75 09c0
000001b0: df31 09be b88c f6be eebe 4cbf 27fb 9dbe
000001c0: 5ddf c9bf a871 a1bf eb93 96bf 11c0 febf
000001d0: fcd0 b3bf 0abf a6bf 7820 fc3f 1909 603f
000001e0: 7abd 87bf 285a 2340 3da9 1140 b0a7 1a3f
000001f0: 02c9 4440 c335 2c40 e731 443f 668b 553f
00000200: 1827 7f3f f835 acbd 501e 0c3f bc9d 363f
00000210: 1278 a2bf ad33 27be 7825 fcbd 2ced d2be
00000220: 255d 813e 3ff9 ecbe a486 0cbf d814 11be
00000230: 9e00 eabe e060 13bf 5e93 14bf 3c49 acbe
00000240: 706c 623e a1bc 24bf d2b6 83bf 8615 fa3f
00000250: 4084 303f 5a05 e6be f5e8 4abf 9ecd fa3f
00000260: 46de c9bf 5095 98bf 68bc 993d 31bc 12bf
00000270: 7a4d a4bf 54cd 79bf 5904 a8be df24 10c0
00000280: 451c b4bf 03a8 2bbf ce7c 2bc0 346b 5fbf
00000290: 4909 1040 c015 2dc0 747d 573d 96a4 6b40
000002a0: 1b00 5bbe 527a 0a40 acdb 4540 d264 a23e
000002b0: fc56 5cbf 68d3 f8be 8827 51bf bab9 7ebf
000002c0: a6aa afbe 2e9d dcbf 003f 89be 7f44 e9bf
000002d0: bf40 35bd f6c6 163f e5ac fabe 1261 673f
000002e0: dea2 bd3e f62e ec3e 7059 66bf 63e4 ebbd
000002f0: 8dc2 753e dfb2 2cc0 eb65 b2bd f047 ca3f
00000300: 9368 01c0 b054 c23f 9667 5140 9e89 ffbf
00000310: 93c7 933e 8af7 c53f 2c1d e33f 4ef5 ae3f
00000320: 8b4c 9abf 40fa 52be e553 1640 8bd5 ad3d
00000330: f779 d5bf c64a e33e 2fe3 d9bf 5f38 7b3e
00000340: fb5e dabf a6f2 7ebf 07a5 54bf 0b41 0dbe
00000350: 3c2a 8a3d 3019 cfbf ef62 b4bf ec9c ad3f
00000360: 5340 9bbf 9c26 21bf bbfe acbf 6d5b 9d3f
00000370: 350f b83f c036 843f 4d8c ccbe 6c3e a8bf
00000380: 1dc5 07c0 a2fd 623f d4dd 593e c17e 083e
00000390: 6eea 0fbe 2a7b 0140 0d93 3f3f ae7a 54bf
000003a0: 56ef ea3e af38 e93f 3ab2 583f 0ac9 413f
000003b0: 282e fdbf f589 0740 3d57 1140 5a76 41c0
000003c0: bb70 793f 7b07 6b3b 2e0c 51c0 10d0 443e
000003d0: ba95 08c0 0113 ecbf 6580 293f acc3 72bf
000003e0: cda9 5bc0 a524 1d3f 6f3c 473f edd7 1ec0
000003f0: a837 43bf 0724 d3be 0ae7 4fbf d519 87be
-0.56706166 0.09483847 -1.9802179 0.5890553 -0.12469216 -2.5425384 0.6550098 -0.8012016
-2.1341007 -1.5610361 0.6808854 1.1796935 -0.6294334 1.5278587 1.3401076 0.75747967
0.66617787 -0.0974028 -1.7193241 0.4031947 1.7544637 -2.0728867 1.1743408 4.1410975
-1.118099 1.9800292 5.007185 -1.927181 -0.6657626 1.8148049 -2.726091 -1.2225704
-0.5805011 -2.6397295 -2.1367464 -0.92928207 -2.3864813 -1.3949493 -0.87333006 -1.008838
-0.045102734 0.012311628 1.2252218 1.9723529 1.87037 -0.40413254 0.2885404 1.1633221
-0.79131126 0.054901935 1.3510042 -0.0565279 1.0002333 2.340779 0.29293478 -0.17821191
-0.11824951 2.0359895 1.3872473 0.48226106 0.5966772 0.8750705 0.7500148 -1.280824
-1.6820273 -0.70112294 -0.3829443 -0.65560585 -0.15712564 -0.8970393 -1.0097625 -1.6585954
-2.49971 -2.604878 -2.644204 -1.8214923 -1.5807531 -1.145291 0.29895434 0.672614
0.3226017 -0.081035644 -1.5131583 -1.4487562 0.044189002 -0.07446086 0.21327347 0.2305075
0.3212595 0.7588548 0.4661303 -0.26344594 -0.81097776 0.87809765 0.6374203 -1.5577723
1.5295248 1.4712628 -1.4206649 1.3505367 1.1657403 0.827223 -0.14358126 -0.69472414
-1.3366163 -0.87458456 -1.0846971 -2.1478224 -0.1339793 -0.48154235 -0.79978836 -0.30855677
-1.577129 -1.261281 -1.1763891 -1.9902364 -1.4048152 -1.302705 1.9697409 0.8751388
-1.0604699 2.5523777 2.2759545 0.6041212 3.0747685 2.6907814 0.76638645 0.8341583
0.9966903 -0.08408731 0.54733753 0.71334434 -1.2692893 -0.16328306 -0.12311834 -0.41196573
0.25266376 -0.4628391 -0.54892945 -0.14168108 -0.45703596 -0.57569695 -0.58037364 -0.33649623
0.22111678 -0.64350325 -1.0290167 1.9537818 0.689518 -0.44925958 -0.79261714 1.9593999
-1.5770957 -1.1920567 0.07506639 -0.5731841 -1.2836144 -0.9757893 -0.32815817 -2.2522504
-1.4071127 -0.6705324 -2.6794925 -0.87272954 2.2505667 -2.7044525 0.052609876 3.6819205
-0.21386759 2.1637158 3.0915327 0.31717545 -0.8607023 -0.4859879 -0.81700945 -0.99502146
-0.34309882 -1.7235467 -0.26805878 -1.8224028 -0.0442512 0.5889734 -0.48960033 0.9038249
0.3703832 0.46129578 -0.8998022 -0.11518171 0.23999996 -2.6984174 -0.087108456 1.5803204
-2.0220077 1.5182095 3.2719474 -1.9963872 0.288632 1.5466168 1.7743278 1.3668611
-1.2054609 -0.20603275 2.3488705 0.08487996 -1.6677846 0.44392985 -1.7022456 0.24533223
-1.7060236 -0.99589 -0.8306431 -0.13794343 0.06746337 -1.6179562 -1.4092692 1.3563514
-1.2129005 -0.6294954 -1.3515238 1.2293526 1.4379641 1.0329208 -0.3995079 -1.314405
-2.1214058 0.8866826 0.21276027 0.13329603 -0.14054272 2.0231423 0.74833757 -0.82999694
0.45885724 1.8220423 0.8464695 0.75697386 -1.9779711 2.1177952 2.2709496 -3.0228486
0.9743764 0.0035862613 -3.2663684 0.19219995 -2.1341386 -1.84433 0.6621154 -0.9482982
-3.4322388 0.6138404 0.7782659 -2.481929 -0.762568 -0.41238424 -0.8121191 -0.26386896

layer1.1.bn1.weight f4 [16]
00000000: 0b6d cd3f 0abe df3f 9d27 1340 8f37 0d40
00000010: 7daf ed3f 485b f43f 6a76 0f40 c6ae ee3f
00000020: 117d 1640 b3e2 af3f 91a1 1a40 ee84 c33f
00000030: b968 fb3f 0298 6340 33e7 0b40 ca21 d13f
1.6048902 1.747987 2.2992928 2.206516 1.856918 1.9090357 2.2416024 1.8647087
2.3513834 1.3741058 2.4161112 1.5274942 1.9641334 3.5561528 2.1859863 1.6338437

layer1.1.bn1.bias f4 [16]
00000000: 9953 8abf 24c5 143c 1308 4ebf bb24 69bf
00000010: 8f5d 82bf e920 b7be 63ef 47bf 2d28 3cbf
00000020: f2f2 7fbf be8d 58bf 524d 39bf 2632 92bf
00000030: 0a7b 8dbf b9a9 1dbe e482 a2bf 2689 47bf
-1.0806762 0.009080205 -0.8048107 -0.9107167 -1.0184802 -0.35767296 -0.7809965 -0.73498803
-0.9998008 -0.8459128 -0.72383606 -1.1421554 -1.1053174 -0.15396775 -1.2696195 -0.77943647

layer1.1.bn1.running_mean f4 [16]
00000000: 5e5b 1dc2 63dd 86c1 177b 36c2 56bd b5c1
00000010: e2ca 0fc2 2d15 28c2 9e79 55c2 c302 79c1
00000020: d978 7e41 8703 9742 fd61 02c2 e6f8 bec2
00000030: f8d0 e441 ee8c dbc1 30f9 2442 d716 d0c1
-39.339226 -16.858099 -45.620205 -22.71745 -35.948128 -42.02068 -53.368767 -15.563174
15.904504 75.50689 -32.59569 -95.48613 28.602036 -27.443813 41.243347 -26.011152

layer1.1.bn1.running_var f4 [16]
00000000: d262 0a45 c026 c544 1ef4 3e45 f510 3a45
00000010: 9f1c 4245 93f3 cf44 0e59 3245 7020 bf44
00000020: 296e e044 67a6 f244 5353 e244 878a c244
00000030: 3eeb 1745 80e6 7e45 008f 1545 4d58 b144
2214.1763 1577.2109 3055.2573 2977.0598 3105.7888 1663.6117 2853.566 1529.0137
1795.4425 1941.2001 1810.6039 1556.329 2430.7026 4078.4062 2392.9375 1418.7594

layer1.1.conv2.weight f4 [16, 16, 3, 3]
00000000: c433 95bf 7aa2 28bf 01f6 563f e362 ffbf
00000010: b702 e2be 8e98 163f d80a 2b3f 067c d53f
00000020: b467 0740 29c1 06bf 4c4c 3cbe 428d a8be
00000030: 9ba6 92bf 6bf0 01c0 ff9a 6f3f 6486 fabf
00000040: 5dc5 94bf 3f42 0940 58ca fc3d 1f00 bbbd
00000050: 1200 1b40 a086 1a3f 8e43 ac3e ecf7 2840
00000060: 5088 933f 608e aebf 782a 0a3f 871c 243f
00000070: e180 053f 0f1a ec3e 8339 9c3e 2422 853f
00000080: e9db 32bf 8249 d6be ff82 ffbe a56b 72bf
00000090: 82d9 3b40 df66 6fbf 8547 693f b502 73be
000000a0: c045 90c0 eefe 9cbe a730 31bf c611 cfbf
000000b0: b189 36bf e102 0540 f513 223f d923 04c0
000000c0: 87ce b13f e656 423e 7bfe 75be f713 073f
000000d0: cafe 483f b81b e33c 371d 523f 0d97 cd3e
000000e0: 54c6 403f caed 2640 0445 8fbe d858 873f
000000f0: 04bc 6240 decc 55bf d902 db3f e065 8f3f
00000100: d10f e9bd e7ba b2bf 4e75 f0bd 143f ec3e
00000110: 56e6 dabf e1a9 fcbe 5ddb 3fbf e0d8 df3e
00000120: 9bee 963f 688c 03bf ccc9 93bf 2bc9 a7be
00000130: 97a7 833f f46e 3240 89ec d63f d32c 98bf
00000140: 4b7b d43f df98 ce3e 428e a0bf 685e 58be
00000150: b0e3 7a3f 45f3 83bf ce77 56be bd65 c13f
00000160: cca6 ecbe d0dd 493e 4e4d bf3f 2b1f 5840
00000170: 6566 5340 a360 3740 abd9 9740 c332 5dbe
00000180: d766 4340 4c92 2f40 f8c4 ca3e fac4 f8bd
00000190: 02b0 e4bf 1274 eebf fa4c 38bf 453f 9dbf
000001a0: b8af 5ebf dc63 debe 2ccc 91bf 15ca 46bf
000001b0: e18b cdbc 30d8 1ec0 adb4 14bf 543c 43bf
000001c0: a6f2 46c0 3e97 a2bf cafa acbf 75a5 64c0
000001d0: 0194 a2bf 7636 8ebf 4088 b1bf 4ab3 39bd
000001e0: c1af 803f d375 bdbe 9ce5 0dc0 99d5 8fbf
000001f0: 90a0 b5be c36d 81bf b4f7 85bf e7f0 2cbe
00000200: 5e58 5bbd fbee bdbf 5541 6a3e 17f3 25bf
00000210: 8aa6 f0bf 4602 bb3e a324 cbbe 708b a63f
00000220: 00c8 4a3e 994f a0bd 69b9 36bf 2ef8 2f3f
00000230: 078f f6be 4c53 263d 44c1 20bf 191c 383f
00000240: 58e4 e93e 2e07 943f a5ce 873f 103e 303f
00000250: 8ed1 9b3f 41a5 923f 9aa2 7fbf 551d c7be
00000260: 9fa0 48bf f26f 83be f964 7abf c9d9 6ebf
00000270: 1849 d53f ba20 0240 dccb 793f 06d8 1b3e
00000280: 821b c53e 80de 3bbf 02df 8cbf 2947 353f
00000290: cd07 0a3e e095 15c0 3fe1 66bf e733 1bc0
000002a0: 47cc 0dbf 1b70 e73e 336d a4bf 1a2b c63f
000002b0: fd40 2240 f719 d33f 77cd 9d3f 70fd 5b3f
000002c0: 8117 77be 6a0d 9abf 7736 e4bf 7e9a 04c0
000002d0: 962c 67be 6318 823c 222b 2f3e 7cee a53f
000002e0: 091f 9e3f 6ecc 3f3c 2016 1c40 5969 f13f
000002f0: 72b8 a4bc d6d0 b3bf f5ed 33bf cb3e 803f
00000300: 23e1 54c0 108b 01bf 910e 0740 291e 52bf
00000310: 735c 8ebf 61ea 0740 774d 063f ae20 303f
00000320: b659 99bf 357b 48bf 6cc2 d3bf e923 40c0
00000330: 61c7 fcbf d452 80c0 cfc9 68c0 618b 163f
00000340: 624e 533f 97bb 3a3e c951 b83f e54a fc3f
00000350: a810 86bd 8616 a8bf 3560 22c0 d529 62c0
00000360: d211 853d 50de 5c3f 6def 95bc 0e53 5cbe
00000370: ec3b e9bf 15ca c83d b0a2 aabf 01c7 b7bf
00000380: e934 e93f 8854 6f3f aad4 b63f 6426 b43f
00000390: 16bb db3f b5ff 1140 339c 0e40 98c8 d63f
000003a0: 954b 1440 d592 1a40 988c 0640 d0b2 553f
000003b0: e37b 36be 86d8 19bd 7b74 9bbe 9836 b0be
000003c0: 402c 5fc0 2f72 04c0 2e9a 45be c886 ce3d
000003d0: 2e6a 82bf adc5 09bf 6257 45bf 9bf3 0abf
000003e0: 9c8e 8a3e 2830 383f 8d1c 7f3f d6a7 8c3f
000003f0: a22b abbd b620 72bf 5423 bebf 7abd 6b3f
-1.1656423 -0.6587292 0.8396912 -1.9952053 -0.44142696 0.5882653 0.6681342 1.6678474
2.1157045 -0.5263849 -0.1838848 -0.3292027 -1.1457094 -2.030299 0.9359588 -1.9572263
-1.162273 2.1446683 0.123432815 -0.091308825 2.4218793 0.6036167 0.3364529 2.640132
1.1525974 -1.3637199 0.5397105 0.6410603 0.5214978 0.4611363 0.30512628 1.0401044
-0.69866806 -0.41852957 -0.4990463 -0.946955 2.9351506 -0.93516344 0.91124755 -0.23731501
-4.5085144 -0.30663246 -0.6921486 -1.6177299 -0.7130385 2.0783007 0.633117 -2.064688
1.3891152 0.18978462 -0.24022858 0.5276484 0.7851378 0.027723178 0.8207583 0.40154305
0.75302625 2.6082635 -0.27982342 1.0573988 3.5427256 -0.8351573 1.7110244 1.1202965
-0.1137997 -1.3963288 -0.11741124 0.46141875 -1.7101543 -0.49348357 -0.74944097 0.4372015
1.1791567 -0.5138612 -1.1545959 -0.32770666 1.0285519 2.788022 1.6790935 -1.1888679
1.6600126 0.40351006 -1.2543414 -0.21129763 0.98003674 -1.0308615 -0.2094414 1.5109173
-0.46221006 0.19713521 1.4945467 3.3769023 3.3031247 2.8652732 4.745321 -0.21601395
3.0531518 2.7433043 0.396034 -0.12146945 -1.7866213 -1.8629172 -0.71992457 -1.2284933
-0.86986876 -0.43435562 -1.1390433 -0.776521 -0.025091114 -2.481945 -0.5808819 -0.7626393
-3.10856 -1.2702405 -1.3514035 -3.5725987 -1.2701417 -1.111037 -1.3869705 -0.045337
1.0053636 -0.37003955 -2.2171392 -1.123706 -0.35474062 -1.0111622 -1.0466218 -0.16888772
-0.05355107 -1.4838556 0.22876485 -0.6482405 -1.8800824 0.36525172 -0.3967639 1.3011303
0.19802856 -0.07827682 -0.71376663 0.6873807 -0.48155996 0.04060678 -0.627949 0.71917874
0.45682025 1.1564691 1.0609938 0.688447 1.2173326 1.1456681 -0.99857485 -0.38889566
-0.7837009 -0.25671345 -0.9781032 -0.93301064 1.6662931 2.0332475 0.9757669 0.15219125
0.3849755 -0.73386383 -1.1005557 0.70811707 0.13479538 -2.3372726 -0.9018745 -2.4250429
-0.5538983 0.45202717 -1.2845825 1.5481904 2.5352166 1.6492299 1.2328328 0.8593359
-0.2413006 -1.2035344 -1.7829121 -2.0719295 -0.22575602 0.01588077 0.17106298 1.2963405
1.2353221 0.011706455 2.4388504 1.8860275 -0.020107482 -1.4048107 -0.7028497 1.0019163
-3.3262413 -0.5060282 2.110264 -0.8207727 -1.1121963 2.1236804 0.5246195 0.68799865
-1.1980503 -0.78313 -1.6543708 -3.0021918 -1.9748346 -4.010111 -3.6373174 0.58806425
0.8254148 0.18235622 1.4399959 1.9710356 -0.06546146 -1.3131874 -2.537122 -3.5338032
0.064975396 0.8627672 -0.018302644 -0.21516058 -1.8221412 0.09804169 -1.3330898 -1.4357606
1.8219272 0.9348836 1.428365 1.4074216 1.7166469 2.281232 2.2282836 1.6779966
2.3171132 2.415212 2.1023312 0.8347597 -0.17820697 -0.03756001 -0.30362305 -0.34416652
-3.4870758 -2.0694692 -0.19297096 0.10084301 -1.0188653 -0.53817254 -0.7708646 -0.5427796
0.27061927 0.7194848 0.9965294 1.098872 -0.08357932 -0.9458116 -1.4854531 0.92085993

layer1.1.bn2.weight f4 [16]
00000000: 9199 0a40 9536 9c3f 9b3a 893f 423f cb3f
00000010: b71c 823f c0a9 983f e983 423f 624e b23f
00000020: b149 ca3f d049 333f 8c99 923f 1428 0540
00000030: 09ed 863f 62ec 993f fd95 3c3f e9b0 7d3f
2.165623 1.2204157 1.072101 1.587868 1.0165013 1.1926804 0.7598253 1.393017
1.5803739 0.70034504 1.1453109 2.0805712 1.0541087 1.2025263 0.73666364 0.9909807

layer1.1.bn2.bias f4 [16]
00000000: 1eaf 2bc0 e359 65bf 9ce0 2b3f c9f1 20bf
00000010: da4e 6d3f 1a2f 843e 4da4 adbf da6f 94bf
00000020: 6eb3 85bf 6430 e2bf 53ee d8be 7ea7 9cbf
00000030: 5370 9b3f c893 aa3d f1f4 9ebd 87af 38bf
-2.6825633 -0.8959028 0.671396 -0.62868935 0.9269844 0.25817186 -1.3565766 -1.1596634
-1.0445383 -1.7671018 -0.42369327 -1.2238615 1.2143654 0.08328968 -0.077615626 -0.72142833

layer1.1.bn2.running_mean f4 [16]
00000000: 6acb dd3e e5d8 3ec1 228e 0140 eb66 2bc2
00000010: 886a 82c0 fe7c 30c2 cc5b 2641 f8a1 ffc0
00000020: b8dd 7c41 6872 9841 b71f 4ec1 37b6 c9c1
00000030: 2e04 ab41 59c5 9d41 fcd8 873e b64a fd40
0.43319255 -11.927953 2.0243 -42.850506 -4.0755043 -44.122063 10.397411 -7.9885216
15.804131 19.055862 -12.882743 -25.213972 21.37704 19.721361 0.26532733 7.91537

layer1.1.bn2.running_var f4 [16]
00000000: 0cba f343 d19e 0644 f96d 3944 74da 2144
00000010: cda1 3144 52aa 3a44 c42f a843 0a64 f243
00000020: a287 0944 ded3 0544 36a0 eb43 f273 f943
00000030: 481d 3444 1a65 0744 2d4c e343 bcc5 1f44
487.4535 538.4815 741.7183 647.4133 710.52814 746.66125 336.37317 484.78156
550.11926 535.3104 471.25165 498.90582 720.4575 541.5797 454.59512 639.0896

layer2.0.conv1.weight f4 [32, 16, 3, 3]
00000000: 60f4 7cbf 3d85 67c0 9cf9 4ac0 135d 6fc0
00000010: 5103 81c0 e461 e8bf b0a1 4fc0 93f1 1bc0
00000020: b61e 8e3d 4c3c d93d 273e f0be ee8f 8fbf
00000030: 23ed a53f 9572 3abf fbd2 0cc0 7cbe febe
00000040: 8981 30c0 57c2 3cc0 594c 08c0 70f7 953f
00000050: 6bf6 f23f b5e0 2abf 1480 2140 bc61 1540
00000060: fd27 ff3e 7a87 d03f aeba 643f b5c1 d03d
00000070: 6958 623f 41e6 ec3f eb44 b7be ff01 5a3f
00000080: 8983 3a3f 315d 2c3d 456d a3be 7b4f f7bf
00000090: 54f0 a6bf 9b74 cfbf 41e2 8dbf 9e92 65bf
000000a0: 5295 753d 557d 403f aabc 90be 765f b83f
000000b0: 903a 1340 9848 67bf f541 3c3f b6bc 793f
000000c0: a945 123f 7b73 b93f d1e4 a03f 15c7 ba3e
000000d0: a605 583f 73b7 14bf 00c5 24bf c695 d4bf
000000e0: 947b 03be cd1f 20c0 0c12 02c0 6797 13bf
000000f0: c2cf 0dbe fc3f c7be a6ec 943f ea31 0640
00000100: f6f8 83be 46f3 44c0 2627 3c40 9732 a4be
00000110: 8d5e 1bc0 6a3b 0e40 2003 4d3f 957d 2fc0
00000120: 598a a23e e694 f13e 0e44 1e3f a401 41be
00000130: 843f cb3f 24c9 f73f 4f65 f8be f45a 9f3f
00000140: 7265 ec3f d28c dbbe 0a46 ca3f 9219 1e3f
00000150: f3f0 dc3d b2bf b13f e9f4 203f a0a4 e43e
00000160: 17aa 0d40 7904 943f e3d0 1d40 a1f0 ac3f
00000170: 2631 05c0 4d10 d43f bbcf 8a3d 868a 21bf
00000180: 6b7b d7bd ab23 49bc 5869 e43e ea54 d8be
00000190: fecf 09bf 21cf 313f 003d 08c0 3b76 25bf
000001a0: 7e6d 613f 2ae1 c8bf 4982 213f f3e2 023f
000001b0: 2e12 2e3e 9c32 5b3f 0308 803f 67b4 3e3e
000001c0: 73aa 143f 1b1f 1c3f 7513 edbe 50e7 d63e
000001d0: dc11 173e 2eab a3bf 923c c3bf 34a4 6fbf
000001e0: 1126 4ebf bce2 47bf b61a b2be d81f ddbf
000001f0: 6365 08c0 2ff2 8dbf 5371 6d3e 60c8 073f
00000200: 6e75 953d ecfc 6f3f f844 2b3f 7cdb 74be
00000210: 7ec9 9e3e de69 4cbe 37cc adbf 679d 223e
00000220: 37a3 c9bf 8711 81bf 26dd 5bbe 625d 0dc0
00000230: 9772 d7bf 91ca 26bf 8d0d 04c0 92ca 98bf
00000240: 7e07 d0bf cf25 a2bf 0db3 3b3f de7a a8bf
00000250: bfa5 c4bf ab4b 73bf c744 88bf fc33 4cbf
00000260: f3d1 7f3e 67be bcbf e16c fa3e bab9 bb3f
00000270: 248b 0040 5208 a33e fb6b 0cbf 9896 bf3f
00000280: d716 81be 3339 3f3f ca8f a5bf 9f5d 13bf
00000290: 6b48 96bf 42a1 3e3d 3969 ce3e d677 4b3f
000002a0: 6d77 1a3f e484 f23e 84bc 9f3f ca9c cf3f
000002b0: 5d99 6c3f 1a99 eb3e 4cd0 0e3f eac1 b13f
000002c0: 861c 273f 5259 8e3f f5d7 ec3f 3bbd dcbe
000002d0: a81e 07c0 1134 e1bf 027e 3ac0 9418 2c3f
000002e0: 9dba 76bd 5a76 b5bf 4593 0abd 8806 d8be
000002f0: 6d27 f9be b457 31c0 7ff1 13c0 8c9c 24c0
00000300: 3be3 33c0 393f c1bf b315 52bf 9cc3 dc3e
00000310: 2b94 dbbf f154 93bf f0f5 fbbe c5b5 a0bf
00000320: 336d 9abf 751f 923f 9b2b 2c3e 3a35 9bbe
00000330: 391f bfbf 6e48 a2bf f325 11bf 278c 7cbf
00000340: 28c2 a03e 0d8a e8bf fa4d 933f 4abc 5e40
00000350: 931c 2540 9ffd a2be 8483 913f 9134 dc3f
00000360: 6670 213e 3fd8 6e3f 1218 513f bce7 eabe
00000370: 72f7 b23e 251b 8a3f 79e1 04bf e07e 7ebe
00000380: 6bfe c93f e956 0940 f07a ab3e cb0d 5abf
00000390: d574 7240 c1cd 6740 25e0 fa3e 2aa0 e03e
000003a0: 4543 d73f 029c 6f3f 702e 3bbf 5e72 fdbf
000003b0: e570 1dc0 b1e6 adbe 0f7b 1dc0 b4e6 adbf
000003c0: e0a8 3abe a2ed 04bf abac b6bf 38c4 91c0
000003d0: 1191 a4bf edfe 443e cacd 29c0 9159 043d
000003e0: 66bc 833e ca05 85bf 5e46 b23f dcf6 6b3f
000003f0: 86fe 3bbf 4a8b c6bf be19 f2bf 0d1f 343c
-0.98810387 -3.6175072 -3.171485 -3.7400558 -4.031655 -1.8154874 -3.2442436 -2.4366195
0.069394514 0.10607204 -0.46922418 -1.1215799 1.2962993 -0.7283109 -2.2003772 -0.49754703
-2.7579062 -2.9493616 -2.12966 1.1716137 1.8981451 -0.66749126 2.5234423 2.3340902
0.49835196 1.6291344 0.8934735 0.10193197 0.88416153 1.8507768 -0.35794768 0.85159296
0.72856957 0.04208106 -0.31919304 -1.932113 -1.3042092 -1.620746 -1.1084672 -0.89676845
0.059956856 0.7519124 -0.2826894 1.4404132 2.3004494 -0.90345144 0.7353814 0.97553575
0.5713754 1.4488367 1.2569829 0.36480013 0.8438362 -0.5809242 -0.643631 -1.6608207
-0.1284011 -2.501941 -2.0323515 -0.57652897 -0.13848785 -0.38916004 1.1634719 2.0967965
-0.2577588 -3.0773482 2.9398894 -0.32069847 -2.427646 2.2223763 0.80082893 -2.74204
0.31746176 0.47183913 0.61822593 -0.18848282 1.5878758 1.9358258 -0.48514792 1.2449632
1.8468459 -0.42880875 1.5802624 0.6175777 0.10788145 1.3886626 0.62873703 0.4465685
2.2135065 1.1563865 2.4658744 1.3510934 -2.0811248 1.6567475 0.06777903 -0.63101995
-0.10521587 -0.01227657 0.4461162 -0.42252284 -0.53832996 0.6945668 -2.1287231 -0.6463353
0.88057697 -1.5693715 0.63089424 0.5112755 0.16999123 0.856241 1.0002445 0.18623506
0.58072585 0.60984963 -0.46303907 0.41973352 0.14752907 -1.2786615 -1.525286 -0.9360993
-0.80526835 -0.78080344 -0.34786004 -1.7275343 -2.1311882 -1.1089534 0.23187761 0.53040123
0.072977886 0.93745303 0.6690211 -0.23911852 0.310131 -0.1996226 -1.3577946 0.15880357
-1.5752934 -1.0083474 -0.2147108 -2.2088246 -1.6831845 -0.6515284 -2.063327 -1.193682
-1.6252286 -1.2667788 0.73320085 -1.3162496 -1.5363082 -0.95037335 -1.0645989 -0.7976682
0.24982433 -1.4745606 0.48911193 1.4666054 2.0084925 0.31842285 -0.54852265 1.4967833
-0.25212738 0.74696654 -1.2934506 -0.5756473 -1.174085 0.046540506 0.40314654 0.7947973
0.6033848 0.47367013 1.2479405 1.6219723 0.92421514 0.46015245 0.55786586 1.3887303
0.652779 1.1121008 1.8503405 -0.4311312 -2.111246 -1.7594014 -2.913941 0.67225003
-0.060236562 -1.4176743 -0.033831853 -0.42192483 -0.48662892 -2.770978 -2.3116148 -2.5720549
-2.810744 -1.5097419 -0.8206436 0.43117988 -1.7154592 -1.1510297 -0.49211073 -1.2555472
-1.2064575 1.141585 0.16813509 -0.30314046 -1.4931403 -1.2678354 -0.5669853 -0.98651356
0.3139813 -1.816713 1.1508172 3.4802423 2.579869 -0.31834123 1.136826 1.7203542
0.15765533 0.93298715 0.81677353 -0.45879924 0.3495441 1.0789534 -0.51906544 -0.24853086
1.5780767 2.1459296 0.3349223 -0.85177296 3.7883809 3.6219332 0.48999134 0.43872195
1.6817404 0.93597424 -0.73117733 -1.9800527 -2.4600155 -0.33965066 -2.460636 -1.358603
-0.18228483 -0.519251 -1.4271444 -4.5552025 -1.2856771 0.19237871 -2.6531854 0.03231198
0.25729674 -1.0392392 1.3927724 0.9217355 -0.73435247 -1.5511258 -1.8914106 0.010993731

layer2.0.bn1.weight f4 [32]
00000000: c8a8 0940 1289 0640 3d2d 0d40 b0c7 2e40
00000010: 66e4 1e40 f8b0 e63f 26cb 3940 e465 3840
00000020: 9de2 1540 80d6 0740 803e e43f d6db bd3f
00000030: 37e1 753f 989d fd3f 57e1 ce3f 429e f13f
00000040: 251d c63f b39a 1040 ada9 0440 e36b 0a40
00000050: 632a 0440 28da fb3f 9406 f73f c0f2 0640
00000060: f7ec 0b40 44e9 0240 eeef 1c40 398e c23f
00000070: 1170 0940 d766 0d40 b417 b33f c917 1a40
2.1509266 2.102116 2.2058861 2.730938 2.4826903 1.8022757 2.9030242 2.881219
2.3419564 2.122467 1.7831573 1.4832714 0.96046776 1.9813719 1.6162518 1.8876421
1.5477644 2.259442 2.0728562 2.162835 2.065087 1.9675951 1.9298882 2.1085663
2.1863382 2.0454874 2.4521441 1.5199653 2.147465 2.2094018 1.3991609 2.4077017

layer2.0.bn1.bias f4 [32]
00000000: b104 69be b25e 58bf f65e 5ebf 9e5e 63bf
00000010: cb70 62bf 3a76 37bf 1cdb e8bf d6be 75bd
00000020: 4776 0abd 17de 9dbe dba2 0c3e 28d5 13be
00000030: 78c8 333f 5084 e2bf 2343 a3bf 430a 5abf
00000040: a303 0bbf 8a5d afbe abae e0be fbbd 65be
00000050: afe0 493f d736 1fbf 63d6 53be 99f4 8abf
00000060: cea1 5ebf e280 04bf a07d d13e eaff 80bf
00000070: e8f0 7fbf 7619 ee3f b8bf 06be 16a3 82bf
-0.22755696 -0.84519494 -0.8686365 -0.8881625 -0.8845336 -0.71664774 -1.8191867 -0.05999645
-0.033804204 -0.30833504 0.13734 -0.14436781 0.70227766 -1.7696629 -1.2754864 -0.8517191
-0.54302424 -0.34251052 -0.4388326 -0.22435753 0.78858465 -0.62193054 -0.20687251 -1.0855895
-0.86965644 -0.5175916 0.40916157 -1.0078099 -0.9997697 1.860152 -0.13159072 -1.020602

layer2.0.bn1.running_mean f4 [32]
00000000: a778 16c2 c780 71c2 bd2f 19c2 2b69 e9c1
00000010: 62bd 1bc2 e86f 31c2 326e a641 2787 99c2
00000020: 5265 6f40 5451 8441 dd56 2541 5aa5 b8c0
00000030: eb86 b6c1 d0e3 1cc2 ab70 4542 405f 4b42
00000040: 0cf7 16c2 68d4 3ec0 3ffe d941 15bb cac0
00000050: 8776 bac2 203a 85c2 d929 0cc2 9e72 55c1
00000060: ac7f dbc2 0fea 0cc1 f6b2 b1c1 92fb 1dc1
00000070: edb8 d641 4ef1 0ec2 81e5 74c2 60de a0c1
-37.617825 -60.37576 -38.29662 -29.176352 -38.934944 -44.359283 20.803806 -76.76397
3.740559 16.539711 10.333707 -5.7701845 -22.815878 -39.222473 49.360027 50.843018
-37.741257 -2.9817142 27.249144 -6.335337 -93.2315 -66.613525 -35.040867 -13.340483
-109.74936 -8.807143 -22.212383 -9.873919 26.840296 -35.73565 -61.224125 -20.108582

layer2.0.bn1.running_var f4 [32]
00000000: fad4 9145 a819 1a45 21d4 d744 6874 0245
00000010: 3918 7445 58df fc44 69e0 9744 4e61 3e45
00000020: c04e 9245 02cb 4b45 73d0 e944 905e ee44
00000030: d9e3 3745 a24f b744 a096 cf44 41af 3b45
00000040: 41d5 2d45 0d43 4845 2e1c 2e45 9c00 2045
00000050: 1b5b 6b45 b03c fc44 9540 f244 3fd8 e044
00000060: 18e7 2845 e197 2245 604c 2745 a560 0645
00000070: 9bf5 e644 4bf3 8b45 96d7 3f45 3c17 0d45
4666.622 2465.6035 1726.629 2087.2754 3905.514 2022.9795 1215.0128 3046.0815
4681.8438 3260.688 1870.514 1906.9551 2942.2405 1466.4885 1660.707 3002.9534
2781.3284 3204.1907 2785.7612 2560.038 3765.694 2017.8965 1938.0182 1798.7577
2702.4434 2601.4924 2676.7734 2150.0403 1847.6752 4478.4116 3069.474 2257.4521
