pth/model.pth (torch, 817391 bytes, 77 tensors)

conv.weight f4 [16, 3, 3, 3]
0	0x3ed323b1	0.41238168
1	0xbfa3b985	-1.2790991
2	0xbf4ba78c	-0.7955253
3	0xbf4c57c5	-0.79821426
4	0x3b9429b5	0.0045215734
5	0xbfeaa23f	-1.8330764
6	0xbf55b28d	-0.8347557
7	0xbef4e1ed	-0.47828618
8	0xbf01bd76	-0.5067972
9	0x3cc4cf62	0.02402467
10	0xbf406c98	-0.751657
11	0xbefdef9b	-0.49596867
12	0x3eb7ae8f	0.35875365
13	0x401a9537	2.4153574
14	0xbeef6f6b	-0.46764693
15	0x3fada463	1.3565792
16	0x4041625d	3.0216286
17	0x3ff118e8	1.8835726
18	0xbf618b6e	-0.8810338
19	0xbfe94970	-1.8225536
20	0xbfd5feab	-1.6718343
21	0xbecd7942	-0.40131575
22	0x3f80b58f	1.0055407
23	0xbf7cd2f6	-0.987594
24	0x3f9c86ea	1.2228673
25	0x400eccf4	2.2312593
26	0x3fe5c920	1.7952003
27	0x3f8e7be9	1.1131564
28	0x404cfe0f	3.2030065
29	0x3fcc150d	1.5943924
30	0x3fa6beb3	1.3026947
31	0xc00e3a86	-2.222322
32	0xbfcfe6f6	-1.6242359
33	0xbfa76a53	-1.3079323
34	0xbe85cb8f	-0.26131865
35	0xbfda0436	-1.7032535
36	0xbe9880e6	-0.29785842
37	0x3fa293bc	1.2701335
38	0x3e651353	0.22370653
39	0x3fa0c7b1	1.2560941
40	0xbfe6e497	-1.803851
41	0xbf994b85	-1.1976172
42	0x3e4d7bf3	0.20066814
43	0x400e7e1a	2.2264466
44	0x3d521e0c	0.051298186
45	0xbff054f7	-1.8775929
46	0x3dee2366	0.116278455
47	0x3d81c3ba	0.0633616
48	0xbf53142c	-0.82452655
49	0xbfea5955	-1.8308512
50	0x3e3a19d0	0.18173909
51	0xbf38abfe	-0.7213744
52	0x3ffaec36	1.9603336
53	0x3fba77ff	1.456787
54	0xbe330bfa	-0.17485037
55	0xc06e2993	-3.7212875
56	0xbf1947cd	-0.59875184
57	0x3d46194b	0.048363965
58	0xc026fb68	-2.6090946
59	0xbefc6e7d	-0.49303046
60	0x3f8cdc88	1.1004801
61	0x3fe95230	1.8228207
62	0x3ffccc14	1.974978
63	0x3f8d0968	1.1018496
64	0xc01574dd	-2.3352578
65	0x3f807762	1.0036433
66	0xbd82ec30	-0.063927054
67	0xc023ae4d	-2.5575135
68	0xbe0d110b	-0.13776033
69	0x3e352a4c	0.17691916
70	0x3ea422af	0.3205771
71	0x3fa0c977	1.2561482
72	0x3fac2104	1.3447576
73	0xbf8e6558	-1.1124678
74	0x3f48e4a0	0.78473854
75	0x3dbcfc01	0.092277534
76	0xc0267335	-2.6007817
77	0xbf3f8c78	-0.74823713
78	0x3d61ea85	0.055155296
79	0xbf3ba493	-0.73297995
80	0x3ec3fbf4	0.38278162
81	0x3eff7f5b	0.49901852
82	0x3f592abe	0.84830844
83	0x3f054963	0.52065104
84	0xbfe55c10	-1.791872
85	0xbfcb92d4	-1.5904183
86	0xc017ce72	-2.3719754
87	0xbfe2c25e	-1.7715566
88	0xbff48574	-1.9103227
89	0xbf82149d	-1.0162541
90	0x3f0237fe	0.5086669
91	0x3f181618	0.5940871
92	0x3ea19826	0.31561393
93	0xbf215dce	-0.6303376
94	0xbf322e65	-0.6960204
95	0xbfdd64fb	-1.7296442
96	0xbf3b7b18	-0.732347
97	0xbf0695f7	-0.5257258
98	0xbe9c2d06	-0.305031
99	0x3f900553	1.1251625
100	0x3fa89a44	1.3172078
101	0x3ea6713a	0.3250826
102	0x3f321a04	0.69570947
103	0x3ea8e3cd	0.32986298
104	0xbf7fac5c	-0.99872375
105	0x3f285059	0.657476
106	0x3ef1e217	0.47242805
107	0x3e0cf3ee	0.13764927
108	0xbfd41cf2	-1.6571333
109	0xbfb5da67	-1.4207276
110	0xbfa3eeca	-1.2807248
111	0xbfc12879	-1.5090476
112	0x3f2da54d	0.67830354
113	0xbf8e8933	-1.113562
114	0x3daf958b	0.08573445
115	0x3fb02e20	1.3764076
116	0x3f2250b0	0.6340437
117	0xbe236f67	-0.15960465
118	0x3fb4e033	1.413092
119	0x3f1987a8	0.5997262
120	0x3e8b655f	0.27225778
121	0x40a8a7f1	5.2705007
122	0x3f6c6235	0.9233735
123	0x3f3daa7a	0.7408825
124	0x408dd877	4.432674
125	0x3faa5518	1.3307219
126	0x3e19b98b	0.15012185
127	0x3f1d6f21	0.61497694
128	0xbed29850	-0.4113183
129	0xbebfa5a7	-0.3743107
130	0x3f5d5505	0.86457855
131	0xbfa27190	-1.2690907
132	0xbead41ce	-0.33839267
133	0xbefb00b8	-0.49023986
134	0xbfa3b48b	-1.2789472
135	0xbfb63088	-1.423356
136	0xbf7abc51	-0.979436
137	0xbfa06ec5	-1.2533804
138	0xbf90ee45	-1.1322714
139	0xbfa392bb	-1.2779154
140	0xbf981d2e	-1.1883905
141	0x3d1b543d	0.037922133
142	0xbf265bd8	-0.6498389
143	0xbde37c58	-0.11107701
144	0x3f9cb619	1.2243072
145	0x40337992	2.804295
146	0x3fc6b5c5	1.5524222
147	0x3fcc60af	1.5967005
148	0x4018c199	2.3868163
149	0x400f2679	2.2367232
150	0x3f9ca338	1.223731
151	0x3fb048d9	1.3772231
152	0x3fb3d6e8	1.4049959
153	0xbe390784	-0.18069273
154	0xbefce3c6	-0.49392527
155	0xbee43d17	-0.44577858
156	0xbfac883c	-1.3479075
157	0xc00ec04f	-2.2304876
158	0xbfe67398	-1.8004026
159	0xbea07bad	-0.31344357
160	0xbfb31e64	-1.399365
161	0xbf3323ef	-0.69976705
162	0xbe6cc0ff	-0.23120497
163	0xc0430017	-3.0468805
164	0xbf8152cc	-1.0103393
165	0x3fa52e51	1.290476
166	0x4005208c	2.0801115
167	0x3fd42a92	1.6575491
168	0xbe6eb78a	-0.23312202
169	0x3fe4f61f	1.788761
170	0x3edf9bb9	0.43673494
171	0xbf003906	-0.5008701
172	0xc0491717	-3.1420343
173	0xbfa10ef2	-1.2582686
174	0x3f56a39b	0.8384339
175	0x4001e723	2.0297325
176	0x3fb872a5	1.4409987
177	0xbeae10ca	-0.33997184
178	0x3fc35bc5	1.5262381
179	0xbc21afdd	-0.009868589
180	0xbf19b13c	-0.60036063
181	0xc02689b6	-2.6021552
182	0xbf761b7f	-0.96135706
183	0x3ece7310	0.4032216
184	0x3f1d6703	0.6148531
185	0x3f8791a0	1.0591316
186	0xbe571947	-0.21005736
187	0x3f221442	0.6331216
188	0x3eecadc6	0.4622633
189	0x3fdb952b	1.7154897
190	0x403553f9	2.8332503
191	0x3eedd681	0.46452716
192	0x401f07d2	2.4848523
193	0x3f8f0572	1.1173537
194	0xbf2c3ddb	-0.67281884
195	0xbe9a8bfe	-0.3018493
196	0xbfe434c1	-1.7828599
197	0xbfc687cb	-1.5510191
198	0xbf92b8a8	-1.1462603
199	0xbf80c4d7	-1.0060071
200	0xbfe33f3d	-1.7753674
201	0x3e74c978	0.23904979
202	0xbfbed3fa	-1.490844
203	0xbfbb43f8	-1.4630117
204	0x3f96411b	1.1738619
205	0xbef0b423	-0.47012433
206	0x3f10cd27	0.5656304
207	0xbfeb8845	-1.8400961
208	0xbfac7ac3	-1.3474964
209	0xbf26d7ee	-0.6517323
210	0xbf99b497	-1.2008237
211	0xbfac7e73	-1.3476089
212	0x3d0abb7f	0.033870216
213	0x3f15b405	0.58477813
214	0x3ee68007	0.45019552
215	0x3fc3a58a	1.5284894
216	0xbf059cb7	-0.5219225
217	0x3e0ea576	0.13930306
218	0xbe06ddfc	-0.13170618
219	0x3f343874	0.7039864
220	0x40265817	2.5991266
221	0xc0219300	-2.5245972
222	0xbf574a9e	-0.8409823
223	0x3f04891b	0.51771706
224	0x3f8c6d72	1.09709
225	0x3f25a559	0.64705426
226	0xbe06998d	-0.13144512
227	0xbfc76a4a	-1.5579312
228	0x3f99cbcd	1.201532
229	0x3ffdd9f7	1.9832143
230	0xc0800867	-4.0010257
231	0xbd7c1fbb	-0.061553698
232	0xbe88b250	-0.26698542
233	0x3dbe5aa1	0.0929463
234	0x3f43611b	0.76320046
235	0x3e9aff7f	0.30273053
236	0x3e08231c	0.13294643
237	0x3f734f37	0.9504275
238	0x3fa8814c	1.3164458
239	0xc025c422	-2.590096
240	0x3f06a8da	0.526014
241	0xbe766792	-0.24062946
242	0xbdf74c13	-0.12075057
243	0xbfcc2d02	-1.5951235
244	0xbdb8d6fd	-0.09025381
245	0xbebe94e2	-0.37222964
246	0xbdba9d8a	-0.091120794
247	0x3fe4f3c6	1.7886894
248	0xbfba0e05	-1.4535528
249	0x3f55cf9d	0.8351992
250	0x3f9bdb5c	1.2176318
251	0x402266f1	2.537533
252	0x3e7f18eb	0.24911849
253	0x3fa5141e	1.2896764
254	0x3e4a68c4	0.19766527
255	0xbf7ecfa3	-0.9953558

bn.weight f4 [16]
0	0x3f55bbb6	0.8348955
1	0x3ff17a0f	1.8865374
2	0x401e75d4	2.4759417
3	0x3f759b25	0.95939857
4	0x3fd1a2a8	1.6377764
5	0x4006ab9a	2.1042237
6	0x3f8f0be7	1.1175507
7	0x3f9b5d0e	1.2137773
8	0x401bbd98	2.433447
9	0x3ff3a54a	1.9034817
10	0x3ff6420f	1.923891
11	0x3febe3d9	1.8428909
12	0x3fb10242	1.3828814
13	0x400b7f40	2.1796417
14	0x3f984f14	1.1899133
15	0x402eb5eb	2.7298534

bn.bias f4 [16]
0	0x3f20c6ec	0.6280353
1	0x4018f9df	2.390251
2	0x3e5be42b	0.21473758
3	0xbf94bf1f	-1.1620826
4	0xbf70f939	-0.94130284
5	0x3eed2c93	0.4632307
6	0x3f8fc797	1.1232785
7	0xbe4b28b5	-0.19839747
8	0x401f84d1	2.4924815
9	0x4013ea48	2.3111744
10	0x3cb9cff8	0.022682175
11	0x3f93f0e7	1.1557893
12	0xbbd16f55	-0.0063914456
13	0xbf35c855	-0.7100881
14	0xbe28f6d6	-0.1650041
15	0x3fd7dcab	1.6864218

bn.running_mean f4 [16]
0	0x3f1b08a8	0.60560083
1	0x3e87da45	0.26533714
2	0xc02c55be	-2.6927333
3	0xc05813f0	-3.376217
4	0x40582398	3.3771725
5	0xbe8e1310	-0.2774892
6	0x3f79e0e0	0.97608757
7	0xbfe379cb	-1.7771543
8	0xbc853d68	-0.016264632
9	0xbbc428c9	-0.0059863073
10	0x3e97230d	0.2951893
11	0xbeb759b2	-0.3581062
12	0x40899d79	4.3004727
13	0xc05ebf84	-3.4804392
14	0x4009aafc	2.151061
15	0x3d6e1149	0.058121953

bn.running_var f4 [16]
0	0x407a691d	3.9126656
1	0x3f4ecea8	0.8078408
2	0x40b6269a	5.692212
3	0x40ca675c	6.325117
4	0x40d2b1a5	6.584185
5	0x3f76a8d5	0.9635137
6	0x409b9bea	4.8627825
7	0x4018c10c	2.3867826
8	0x4005e34a	2.0919976
9	0x3f40d281	0.75321203
10	0x40db743c	6.857939
11	0x402d1704	2.7045298
12	0x4126cbd6	10.424765
13	0x40d03299	6.5061765
14	0x403f493a	2.9888444
15	0x3fe3a241	1.7783891

layer1.0.conv1.weight f4 [16, 16, 3, 3]
0	0x3e2bbaa2	0.16770414
1	0x3fa492f3	1.2857345
2	0xbf11913b	-0.5686223
3	0xbfc0cf9e	-1.506336
4	0x3f7c3952	0.98524964
5	0xbfa79f7d	-1.3095547
6	0xbffbfd83	-1.9686741
7	0xc0103b32	-2.253613
8	0xbff2e4dc	-1.8976092
9	0xbf4e9c18	-0.8070693
10	0x3fd69472	1.6764052
11	0xbe0a993c	-0.13535017
12	0xbfd4c66f	-1.6623057
13	0xbffc5da4	-1.9716077
14	0x3f556c3e	0.8336829
15	0xbf8c0eca	-1.0942013
16	0x3eba6c92	0.36410958
17	0xbeef4ae4	-0.46736825
18	0xbf002f3d	-0.5007208
19	0xc00537bd	-2.081527
20	0xbe21d376	-0.15803322
21	0xbf836a5f	-1.0266837
22	0xbfb4c9d6	-1.4124095
23	0x3e2b0c5d	0.16703935
24	0x3f1ab319	0.6042953
25	0xbf253df5	-0.64547664
26	0x3ffe9a7c	1.9890895
27	0xbf473d8a	-0.77828276
28	0x3ebe54ac	0.37173975
29	0x3d20f5a9	0.03929678
30	0x3f292859	0.6607719
31	0x3f3b9728	0.7327752
32	0xbd077798	-0.033073038
33	0xbf120049	-0.57031685
34	0xbec4e991	-0.38459447
35	0xbf545a6e	-0.82950485
36	0x3f46df64	0.7768462
37	0x40251f42	2.5800328
38	0x3f1ac4cb	0.6045653
39	0x3f959d3c	1.1688609
40	0x4072d731	3.7943842
41	0x3ec55f91	0.38549474
42	0xbf4b45b9	-0.79403263
43	0xbf0bf99a	-0.54677737
44	0xbfdc324f	-1.7202853
45	0xbf13f40b	-0.57794255
46	0xbf327bdd	-0.6972025
47	0x3e1e7260	0.15473318
48	0x3f24539c	0.6419008
49	0x3ebf5f3a	0.3737734
50	0xbf1dccb9	-0.61640507
51	0x3f3c3e43	0.73532504
52	0x3f6604cb	0.89851063
53	0xbe1fe17f	-0.15613364
54	0x3f49b81b	0.7879655
55	0x401dd2c3	2.4659889
56	0x3f3f3162	0.7468473
57	0x3ece4209	0.40284756
58	0x3fcefe05	1.6171271
59	0x3f3c0526	0.73445356
60	0xc0522af4	-3.2838717
61	0xc09f53d5	-4.9789834
62	0xbfbadc60	-1.4598503
63	0x3fd0bbfa	1.6307366
64	0x3d91b01f	0.071136706
65	0x3f7a110c	0.9768226
66	0x3fbc05f3	1.4689316
67	0x3f8ae7d5	1.0852
68	0x3fecedba	1.8510048
69	0x3e955ec0	0.2917385
70	0x3f7fa6ad	0.998637
71	0xbeafcb1a	-0.34334642
72	0x3f489fb8	0.7836871
73	0xbf90d130	-1.1313839
74	0xbea11cff	-0.31467435
75	0xc061dcef	-3.5291097
76	0x3f23c456	0.6397146
77	0x3fbd351f	1.4781836
78	0xbfd864c2	-1.6905749
79	0xbf672b92	-0.9030086
80	0x3ec2a60f	0.38017318
81	0x3fee466c	1.8615241
82	0xbea53c44	-0.32272542
83	0x3fd46b2b	1.6595205
84	0xc0275186	-2.6143508
85	0xbed8c8a0	-0.42340565
86	0xbfd7c169	-1.6855899
87	0xbe8ba2d8	-0.27272677
88	0x3f8520b5	1.0400606
89	0xbeca0b56	-0.39461774
90	0xc0619bc3	-3.525132
91	0xc0a353f6	-5.103999
92	0xbfe7701e	-1.808109
93	0xbfa213af	-1.2662257
94	0xc0733cf8	-3.8005962
95	0xbfcfc02c	-1.6230521
96	0x3e1adc24	0.1512304
97	0xbf28f6a2	-0.6600133
98	0xbe9833c9	-0.2972701
99	0xbf0bf40c	-0.5466926
100	0xbf4ff5e7	-0.8123459
101	0xbf5c6039	-0.86084324
102	0x3f8a9224	1.0825849
103	0x401d9694	2.4623156
104	0xbf089288	-0.5334859
105	0x3fc872c9	1.566003
106	0x3fd684fa	1.6759331
107	0xbdc5ea00	-0.096637726
108	0xbf378122	-0.71681416
109	0x3f2305b4	0.6368058
110	0x3e27aa70	0.1637361
111	0x3e87abe6	0.26498336
112	0x3fc9f3be	1.5777509
113	0xbf23ba33	-0.6395599
114	0xbf3c0ac7	-0.73453945
115	0xbf1fe772	-0.6246253
116	0xbffde220	-1.9834633
117	0xbf98e1dd	-1.1943928
118	0x3f8c84a1	1.0977975
119	0x4000e822	2.0141683
120	0xbe1f2585	-0.15541656
121	0xbf3e557b	-0.7434918
122	0x3eb8902b	0.3604749
123	0xbf4644f9	-0.77448994
124	0xbfdc9e6b	-1.7235845
125	0xbf97645f	-1.1827506
126	0xbf1b328a	-0.6062399
127	0x3f9883e5	1.1915251
128	0x3ee078cd	0.43842164
129	0x3f2a72a5	0.66581184
130	0x404208d0	3.0317879
131	0x3f712baa	0.9420725
132	0xbee26afe	-0.44222254
133	0x3f044a4a	0.51675856
134	0xbf9bf1c2	-1.2183154
135	0x3f1938e2	0.5985242
136	0xbf244728	-0.64171076
137	0x3fc69961	1.5515558
138	0x403a93ef	2.9152792
139	0xc068057a	-3.6253343
140	0xbf260e8a	-0.64865935
141	0x3e0ceb79	0.137617
142	0xbfe0fcbc	-1.7577128
143	0xbf631b4b	-0.8871352
144	0xc02bdfaa	-2.6855264
145	0xbfdfdc56	-1.7489116
146	0x3f50b28f	0.8152246
147	0xbf658602	-0.89657605
148	0xc0060dc8	-2.0945911
149	0xbe787a8c	-0.24265498
150	0x3eba3637	0.36369488
151	0xbdea9327	-0.11453848
152	0xbe420086	-0.18945512
153	0xbff4db84	-1.9129491
154	0xbfa5a30c	-1.2940383
155	0xbebeaebf	-0.37242696
156	0x3fb92722	1.4465067
157	0x3fac92b4	1.348227
158	0x3e4599d2	0.19296959
159	0xc002fea5	-2.0467923
160	0xc00745c8	-2.113634
161	0xbf6fd5c7	-0.93685573
162	0xbfd96489	-1.6983806
163	0xc04ef642	-3.2337804
164	0xc01d57c9	-2.458483
165	0xbeefdeea	-0.46849757
166	0x3ed269b7	0.4109628
167	0xbec2f52b	-0.38077673
168	0xbeb5ed0c	-0.35532415
169	0x4004d643	2.0755775
170	0xbf174b78	-0.5909953
171	0x3fa83846	1.3142173
172	0x3f866888	1.050065
173	0x3d35174d	0.044211674
174	0xbf4651f3	-0.77468795
175	0xbf6ae819	-0.917604
176	0xbfaa5bf6	-1.3309314
177	0x3f743732	0.9539672
178	0x3f439865	0.7640441
179	0x3f8ab89a	1.0837586
180	0x3ecfda7c	0.40596378
181	0x3fcb0b4a	1.586282
182	0x405521f3	3.330197
183	0xbde34d9c	-0.11098787
184	0x3f41577a	0.75524104
185	0x3ff8ae1f	1.9428138
186	0x3e175c2d	0.14781256
187	0xbe0e0daa	-0.138724
188	0x3f1009b1	0.5626479
189	0xbff46792	-1.9094107
190	0xbf95be9c	-1.1698794
191	0x3f7e791c	0.9940355
192	0xc00066f3	-2.0062835
193	0xbfd2b158	-1.6460371
194	0x3f574146	0.84083974
195	0x3eb1ad05	0.34702316
196	0xbe46a1aa	-0.19397607
197	0x4001d7ed	2.028804
198	0xbde05cfb	-0.109552346
199	0xbf7b593a	-0.98183024
200	0x3f2068d9	0.62659985
201	0xc06ba0e0	-3.681694
202	0xc08e3c66	-4.444873
203	0xc01c4dc8	-2.4422474
204	0xbf5e3ea7	-0.8681435
205	0x3e7e2ac9	0.24821009
206	0xbfe34117	-1.7754239
207	0x3dc0b3af	0.09409272
208	0x3fb6e82e	1.4289606
209	0xbf74e1a4	-0.956568
210	0x3f43a8e2	0.7642957
211	0x3f8d6742	1.1047137
212	0xbfe37c82	-1.7772372
213	0x3e075bc5	0.13218601
214	0xbec18ed1	-0.37804273
215	0xbf4f6992	-0.8102046
216	0xbd884f1f	-0.06655716
217	0xbf309f6b	-0.6899325
218	0xc0133e8b	-2.3006923
219	0x3fc5e8d5	1.546168
220	0xbfdae1d1	-1.7100164
221	0xc09c2364	-4.87932
222	0x3fbe6c98	1.487689
223	0x3e91e595	0.2849547
224	0xc00198b8	-2.0249462
225	0x3f283395	0.6570371
226	0x3f87fa96	1.0623348
227	0xbeae941d	-0.34097376
228	0x40030de8	2.0477238
229	0xbf19d6c2	-0.6009332
230	0xbf84821a	-1.0352204
231	0xbf305ee9	-0.6889482
232	0xc02af17f	-2.6709898
233	0xbf44a6a3	-0.7681677
234	0xbe476f24	-0.1947599
235	0x3e5aa245	0.21350963
236	0xbfc46c53	-1.5345558
237	0xbffe87a5	-1.9885145
238	0xbfb859a2	-1.4402354
239	0xc0390e0e	-2.8914828
240	0xc02f66e5	-2.7406552
241	0xbff03f7f	-1.8769377
242	0xbffcceb0	-1.9750576
243	0xbdf98ae2	-0.12184693
244	0x3b51f2f9	0.0032035692
245	0x3f856efa	1.0424492
246	0xbf89a4cf	-1.075342
247	0xbff8c1ff	-1.9434203
248	0x3f41c7f2	0.7569572
249	0xbf4d1852	-0.80115235
250	0xbf88a3ac	-1.0674949
251	0x3f70598c	0.9388664
252	0x3e4de1ed	0.20105715
253	0x3ebb7160	0.36609936
254	0x3f5d7745	0.86510116
255	0xbf70cbfa	-0.94061244

layer1.0.bn1.weight f4 [16]
0	0x403e179a	2.9701905
1	0x4013fe6d	2.312404
2	0x3fcd6b38	1.6048346
3	0x3fc0ffa9	1.5078021
4	0x3fd8583a	1.6901925
5	0x3fc0bc3e	1.5057447
6	0x407c30b3	3.9404724
7	0x3fb932a7	1.4468583
8	0x3f929cc1	1.1454087
9	0x3ff1130d	1.8833939
10	0x404c9cdf	3.1970747
11	0x3fb5ed92	1.4213126
12	0x4009bef2	2.1522794
13	0x3fc12011	1.5087911
14	0x3fa0134b	1.2505888
15	0x3ffc03c3	1.9688648

layer1.0.bn1.bias f4 [16]
0	0x3ea81d47	0.32834837
1	0x3f5badd9	0.85812145
2	0x3e9ae060	0.3024931
3	0xbf114a27	-0.5675377
4	0xbfc8d0f1	-1.5688764
5	0x3f052ead	0.52024347
6	0x4015da88	2.341463
7	0xbf354c1e	-0.7081927
8	0xbf7764b7	-0.96638054
9	0x3feef5d0	1.8668766
10	0x4048dde2	3.1385427
11	0xbf343155	-0.70387775
12	0xbf614f73	-0.88011855
13	0xbd005187	-0.03132775
14	0xbe82162b	-0.25407538
15	0xbf5a5429	-0.8528467

layer1.0.bn1.running_mean f4 [16]
0	0xc20e7f07	-35.62405
1	0xc2a39244	-81.785675
2	0xc278c819	-62.195408
3	0xc28cfc8e	-70.49327
4	0x3f49c463	0.7881529
5	0xc23a2dd5	-46.544758
6	0xc137e9fd	-11.494626
7	0x419a75a7	19.307447
8	0xc1d13762	-26.152042
9	0xc1d364f1	-26.424288
10	0xc13fbdce	-11.983839
11	0xc1ad5df1	-21.67087
12	0xc1773c06	-15.452154
13	0xc22bbe3e	-42.935783
14	0xc29b6b52	-77.70961
15	0xc19bfa8a	-19.497334

layer1.0.bn1.running_var f4 [16]
0	0x44966e4c	1203.4468
1	0x44a8e1e9	1351.0597
2	0x44cdbb99	1645.8624
3	0x43ec0640	472.04883
4	0x44905459	1154.6359
5	0x444e6643	825.59784
6	0x44399d72	742.4601
7	0x4448950e	802.329
8	0x44990286	1224.0789
9	0x4424c5b5	659.0892
10	0x43f61c8d	492.22305
11	0x44804a82	1026.3284
12	0x449b0d59	1240.4171
13	0x442dd816	695.37634
14	0x44927f2a	1171.9739
15	0x43c99e7e	403.23822

layer1.0.conv2.weight f4 [16, 16, 3, 3]
0	0xbf5b4acb	-0.85661
1	0xbfb96106	-1.4482734
2	0x3efcdbd7	0.49386474
3	0xbf1d8a39	-0.61539036
4	0x401df7b4	2.4682436
5	0xbf3c4032	-0.73535454
6	0xbd78bc1e	-0.060726278
7	0x4001c70b	2.0277736
8	0x3fdf949b	1.7467226
9	0x3f9013d3	1.125605
10	0x3f2aa04b	0.6665084
11	0x4013338f	2.300022
12	0x3f6ce55f	0.9253749
13	0xbfbfb5e9	-1.497739
14	0x3f2f879c	0.685663
15	0x3e282e99	0.16424026
16	0xc02d2d34	-2.705884
17	0xbfa98e17	-1.3246487
18	0xbe762fe2	-0.24041703
19	0xbe4df7f5	-0.2011412
20	0xbf2dd5f0	-0.6790457
21	0xbfe63a2a	-1.79865
22	0x3e29bfbc	0.16577047
23	0x3c39e7d9	0.011346781
24	0xbf6b4113	-0.9189617
25	0x3d64b78e	0.055839114
26	0x3f80c825	1.0061079
27	0x3ff11f77	1.8837727
28	0x3d3a8246	0.045534395
29	0x3f51de9d	0.81980306
30	0xbd1a897a	-0.037728764
31	0xbf465380	-0.7747116
32	0x3fb099dd	1.3796955
33	0xbefb2d0c	-0.49057806
34	0xbfba5bb0	-1.4559231
35	0x3f37d260	0.7180538
36	0x3ecfa738	0.40557265
37	0xbfc15e14	-1.5106835
38	0x3f202053	0.6254932
39	0xbfc38284	-1.5274205
40	0xbfd4f0c3	-1.6635975
41	0xbe7b180a	-0.24520889
42	0xc00924f9	-2.1428816
43	0xc00d1acd	-2.2047608
44	0x3c9936ec	0.018702947
45	0x3f62f748	0.8865857
46	0xbe3bb8f7	-0.18332277
47	0xbfd48f83	-1.6606296
48	0x3ed2bb1a	0.41158372
49	0x3fb5f9c9	1.4216853
50	0xc00346f9	-2.0512068
51	0x3e4ad056	0.19806036
52	0x3f896067	1.0732545
53	0x3e3a9b3e	0.18223283
54	0xbf15c8ca	-0.58509505
55	0xbf5703d8	-0.8399024
56	0x401533ce	2.331287
57	0x3f2ab1ac	0.66677356
58	0xbe04f6fa	-0.12984839
59	0xc0293dfe	-2.6444087
60	0xbfa0dbc8	-1.2567072
61	0x3f846db6	1.0345981
62	0x3dfb04bf	0.122567646
63	0x3f778f3c	0.96702933
64	0x3e3b0fa9	0.18267693
65	0x3fd84709	1.6896678
66	0x4003f7c0	2.0619965
67	0x3f41439a	0.75493777
68	0x3fa2ae2c	1.2709403
69	0x3fcd01a2	1.6016123
70	0x3efa2ab8	0.48860717
71	0x3fa5f6c1	1.2965928
72	0xc01215f1	-2.2825892
73	0xc02998ef	-2.6499593
74	0xbfc17f64	-1.5117002
75	0x3d920202	0.07129289
76	0xbf3d9a92	-0.7406398
77	0xbf4ab1ff	-0.7917785
78	0x3fd5aaf4	1.6692796
79	0x3fad7321	1.355076
80	0x3f26d031	0.65161425
81	0x3e319f99	0.17346038
82	0xc017e0ef	-2.3731039
83	0x3fcc0b4c	1.5940948
84	0xbf7f8a16	-0.9982008
85	0xbe120037	-0.14257894
86	0xbed522c9	-0.416281
87	0xbff6635a	-1.924907
88	0xbe5d54b5	-0.21614344
89	0xbfac2856	-1.344981
90	0xbd1dce4a	-0.03852681
91	0x3fabe346	1.3428733
92	0x3e6410ba	0.22272006
93	0x404053d6	3.005117
94	0xc0761da2	-3.8455586
95	0x400a6100	2.1621704
96	0x3ee325cf	0.44364783
97	0xbfc1e1ad	-1.5146996
98	0xc0026036	-2.0371222
99	0xbe92eb91	-0.28695348
100	0xbf92e97c	-1.1477504
101	0xbfa0809c	-1.2539248
102	0xbf4b781f	-0.79480165
103	0x3b28448c	0.0025675623
104	0x3f1e3f30	0.61815166
105	0xbf68bbb8	-0.90911436
106	0xbe60a55b	-0.21938078
107	0x3ece7513	0.40323696
108	0x3e26cbba	0.16288653
109	0x3f909b12	1.1297324
110	0x3fc51ee1	1.5400048
111	0xbfa313a9	-1.2740375
112	0xbf1b98bf	-0.6077995
113	0x3fd48b61	1.6605035
114	0xbf354e1f	-0.7082233
115	0xc03229ae	-2.783794
116	0x3e725ce7	0.23668252
117	0x40125df9	2.2869856
118	0x3fdc884d	1.7229096
119	0xbf228e35	-0.6349824
120	0x3e4878ec	0.19577378
121	0x3fad32ac	1.3531089
122	0x3f2c0f77	0.672111
123	0xc03c3cb4	-2.941205
124	0xbf7a957a	-0.97884333
125	0xbd9bca86	-0.07606988
126	0xbfc458ee	-1.5339639
127	0xbf20b8d5	-0.6278203
128	0x3f68b330	0.9089842
129	0xbf0e326e	-0.555457
130	0x3ec66498	0.38748622
131	0xbfdafac5	-1.7107779
132	0xbe118e1b	-0.14214365
133	0x3f2480b0	0.6425886
134	0xbdced101	-0.10098458
135	0xbf5337b1	-0.82506853
136	0xbe198459	-0.14991893
137	0xbe6a81d5	-0.2290109
138	0xbea59f10	-0.32347918
139	0x3f09bee2	0.5380689
140	0x3e7b9d46	0.24571714
141	0x3fe8d33e	1.8189466
142	0x401ef0f8	2.4834576
143	0x3f74ecda	0.95673907
144	0xbf6fac4c	-0.9362228
145	0x3fb71921	1.4304544
146	0x3f920eb7	1.1410741
147	0xbe36c01b	-0.1784672
148	0xbf2540ae	-0.6455182
149	0xbff05723	-1.8776592
150	0x3f49c2f5	0.78813106
151	0x3f8819ce	1.0632875
152	0x4001c5cc	2.0276976
153	0xbf20a3f0	-0.6275015
154	0xbf8c7b2e	-1.0975091
155	0xbe9c50fc	-0.30530536
156	0x401ce8f5	2.4517186
157	0x403bfc87	2.937288
158	0x4044a0be	3.072311
159	0x400cf3b1	2.2023737
160	0x3fb90f04	1.4457707
161	0x3fe53f48	1.7909937
162	0xbf360be6	-0.71111906
163	0xc026995b	-2.60311
164	0xbf74ffb7	-0.9570269
165	0x3ecd6613	0.4011694
166	0x3eb26c75	0.3484837
167	0x3f9fec21	1.2493936
168	0x3f7fcd5a	0.99922717
169	0x3f0754b7	0.5286364
170	0x3e83e9f6	0.25764436
171	0x3f614d89	0.88008934
172	0x3ef8f4ee	0.48624367
173	0xbf3f0109	-0.74610955
174	0x3f8513e3	1.0396694
175	0xbdfc4043	-0.123169445
176	0xbf4d8de9	-0.8029466
177	0xbdbada29	-0.09123642
178	0xbfbdd825	-1.4831587
179	0xbfcb57a9	-1.5886127
180	0xbff2ab83	-1.8958591
181	0xbfbacd94	-1.4593987
182	0x3faa09a0	1.3284187
183	0xbfc73dfe	-1.5565794
184	0xbd4a9b32	-0.049464412
185	0xbe9d9685	-0.307789
186	0xbf135d8e	-0.5756463
187	0x3e394e04	0.18096167
188	0xbd8bb36d	-0.06821332
189	0xbf9ef08b	-1.2417158
190	0xbe15e97a	-0.14639845
191	0xbd8ec4fb	-0.06971165
192	0xbe80b3d8	-0.2513721
193	0xbf1fa5a8	-0.62362146
194	0xbe23e814	-0.160065
195	0x3f8e946b	1.1139044
196	0x3fdab4d0	1.708643
197	0x3fb83c40	1.4393387
198	0xbf040eae	-0.515849
199	0x40148cb6	2.3210883
200	0x3f47c3ca	0.78033125
201	0xbee98300	-0.45607758
202	0xc057378c	-3.3627653
203	0xbf820067	-1.0156373
204	0xbf398b1b	-0.72477883
205	0x3fa98843	1.3244709
206	0x3fa8b846	1.3181236
207	0x3e9d88ec	0.30768526
208	0x3fabb260	1.3413811
209	0x3fbabd5a	1.4589036
210	0x3f02e4ae	0.5113019
211	0x3ed221b7	0.41041347
212	0x3f105cf2	0.56391823
213	0xbf8d1d61	-1.1024591
214	0xbfe85177	-1.8149861
215	0xbfc83937	-1.564246
216	0x3ea54db4	0.32285845
217	0x3f05ef87	0.52318615
218	0x3f4d9fc7	0.80321926
219	0x3ddb1b1e	0.106985316
220	0x3d232777	0.03983256
221	0x3eb96c49	0.36215428
222	0x3ed094ca	0.40738517
223	0x3e0ac305	0.13550957
224	0x3de749a5	0.112933435
225	0xc0060556	-2.0940757
226	0xbfe3f314	-1.7808557
227	0x3e724f71	0.23663117
228	0x3dba830e	0.09107028
229	0x3f6597dd	0.8968485
230	0xbf6bcf02	-0.92112744
231	0xbfbe24c9	-1.4854976
232	0xc03f82e4	-2.992364
233	0xbfab280f	-1.33716
234	0xbf205cf1	-0.6264182
235	0xc062e60d	-3.5452912
236	0xbea5ffe0	-0.3242178
237	0x3f7a32c8	0.97733736
238	0x3f3e5781	0.7435227
239	0x40316fdb	2.772452
240	0x3e07b556	0.13252768
241	0x3f7fcf59	0.9992576
242	0xbf7a1698	-0.97690725
243	0xbfc18300	-1.5118103
244	0xbf7f032a	-0.996142
245	0xc0136e05	-2.30359
246	0x3f30bc12	0.6903697
247	0x3f954ebd	1.1664654
248	0x3ff72cc6	1.9310539
249	0xbff5672f	-1.9172114
250	0xbf0e14d3	-0.55500525
251	0xbd312b2c	-0.043254063
252	0xbfd0e5f9	-1.6320182
253	0xc0064909	-2.0982077
254	0xbee3d399	-0.44497374
255	0xbf9a37ba	-1.2048256

layer1.0.bn2.weight f4 [16]
0	0x402fea68	2.748682
1	0x400534f6	2.0813575
2	0x4004bac3	2.073899
3	0x3ff98fb4	1.949698
4	0x401dc21b	2.4649723
5	0x3ff2580a	1.8933117
6	0x406ba245	3.6817791
7	0x40180a9a	2.375647
8	0x403dd1d0	2.965931
9	0x4080f17d	4.0294785
10	0x40627b1d	3.5387642
11	0x3faef935	1.3669802
12	0x3f846579	1.0343467
13	0x3f618486	0.8809284
14	0x3ff2a617	1.8956937
15	0x40512d2c	3.268382

layer1.0.bn2.bias f4 [16]
0	0x3f83017d	1.0234829
1	0xc023cc9a	-2.559363
2	0xbe922c78	-0.28549552
3	0xbf31bcfa	-0.6942898
4	0x3fa6bc8c	1.302629
5	0xbedd8f5a	-0.4327343
6	0xbf96ec04	-1.1790776
7	0xbeaaaae6	-0.3333351
8	0x3e9447ec	0.28961122
9	0x3eff09c1	0.4981213
10	0x3e43587b	0.19076721
11	0x3eedcbb4	0.46444476
12	0x3f046e5e	0.51730907
13	0x3d99e969	0.075152226
14	0xbf8715d2	-1.0553534
15	0xbfc8240c	-1.5636001

layer1.0.bn2.running_mean f4 [16]
0	0xc13f4904	-11.955326
1	0xc007fd13	-2.1248214
2	0xc18f89c8	-17.942276
3	0xc0586899	-3.3813841
4	0xc1813a5c	-16.153496
5	0xc0be7706	-5.952029
6	0xc183eed5	-16.491617
7	0xc1bbe448	-23.486465
8	0xc0cc6a87	-6.388004
9	0xbf30f5c6	-0.6912502
10	0x41ac250a	21.518085
11	0x40bed20f	5.963142
12	0xc1bd326d	-23.649622
13	0x42812b11	64.584114
14	0xc133f7b7	-11.247977
15	0x3fcfbe6d	1.6229988

layer1.0.bn2.running_var f4 [16]
0	0x44541a84	848.4143
1	0x4476e3bc	987.55835
2	0x4483aa49	1053.3214
3	0x441c7021	625.752
4	0x447ea2d5	1018.54425
5	0x43fbbc4d	503.4711
6	0x4505ecd1	2142.801
7	0x4443d964	783.3967
8	0x44238645	654.09796
9	0x44a55c7d	1322.8903
10	0x44e6164f	1840.6971
11	0x441deb09	631.6724
12	0x44c43905	1569.7819
13	0x4467555d	925.3338
14	0x4447990e	798.3915
15	0x44916aca	1163.3372

layer1.1.conv1.weight f4 [16, 16, 3, 3]
0	0xbfe042d5	-1.7520396
1	0x40177f45	2.367143
2	0xbcb93245	-0.022606978
3	0xbfce63a9	-1.6124164
4	0xbf398569	-0.7246919
5	0x3fe96dba	1.8236611
6	0x3eb6038a	0.35549575
7	0xc009e0ec	-2.1543531
8	0xc035749a	-2.8352418
9	0x3efa1196	0.48841542
10	0x3f889c80	1.067276
11	0x3e47ba30	0.19504619
12	0xbfaf8d2c	-1.3714957
13	0xc01cd451	-2.4504588
14	0xbf699c4c	-0.91254115
15	0x3f7eaa86	0.9947895
16	0x3fbfefce	1.4995058
17	0xbf37ad6b	-0.7174899
18	0x3f8fe469	1.124158
19	0x3fb8441f	1.4395789
20	0x3f91ddd4	1.1395822
21	0xbd64ff3f	-0.055907484
22	0x3f423d66	0.75874937
23	0x3d299d85	0.041409988
24	0x3d0b10e9	0.033951674
25	0xbf8262d0	-1.0186405
26	0xc0282e6c	-2.6278334
27	0xc02fe9c7	-2.7486436
28	0xc00d840d	-2.2111847
29	0xbf2d61a9	-0.6772714
30	0xc0178b30	-2.3678703
31	0xbf4f0263	-0.80863017
32	0xbf8fcb22	-1.1233866
33	0xc006f3b1	-2.1086237
34	0xbff99878	-1.9499655
35	0xc0309772	-2.7592435
36	0xbf07b397	-0.5300841
37	0x3fa57c80	1.2928619
38	0xbee3df44	-0.44506276
39	0x3f791dc2	0.9731103
40	0x3fb997d0	1.4499454
41	0x3fedc237	1.8574895
42	0x3fabf1e7	1.3433198
43	0x3f2d508b	0.67701024
44	0x3c5e6e08	0.013576038
45	0x3f09459f	0.5362186
46	0xbf890f33	-1.0707763
47	0xbfe4e9a4	-1.7883801
48	0x3f95d4fe	1.1705625
49	0x3f4489e0	0.7677288
50	0xbe98f737	-0.2987611
51	0x3fa2ce72	1.2719252
52	0x3f7674ca	0.96271956
53	0xbde4bc58	-0.11168736
54	0x3d07e183	0.03317405
55	0x3d14c09f	0.03631651
56	0xbd051271	-0.03248829
57	0x3ee3e847	0.4451315
58	0x3f173d47	0.59077877
59	0x3f846fa0	1.0346565
60	0xc08c0a07	-4.376224
61	0xc04592a1	-3.0870745
62	0xbefea516	-0.49735326
63	0x4011717f	2.2725523
64	0x4018e427	2.3889253
65	0x3f9060bd	1.1279522
66	0x3e037e13	0.12841062
67	0xbe39d494	-0.18147498
68	0xbedf16fa	-0.43572217
69	0xbdd4a71b	-0.10383435
70	0xbfaafdb2	-1.3358672
71	0xbf84f07f	-1.0385894
72	0xbd5ea9d0	-0.054361165
73	0x3fa7e888	1.3117838
74	0xbf798d90	-0.9748163
75	0x3f6f68c3	0.9351923
76	0xbee0deec	-0.43920076
77	0x40199cea	2.4002023
78	0x3f6c15ea	0.9222094
79	0x3d3a0034	0.04541035
80	0x3e52ef07	0.20598994
81	0x3fb07aff	1.3787535
82	0x4003325c	2.0499487
83	0xbede520f	-0.4342198
84	0xbed3277f	-0.4124107
85	0x3f9fba45	1.247872
86	0x4008baa2	2.1363912
87	0xbfc32271	-1.5244886
88	0x3dd903d3	0.105964325
89	0x3fb292f5	1.3951098
90	0xc0224f36	-2.5360847
91	0xbff9a0bb	-1.9502176
92	0xc0097bbc	-2.1481771
93	0xbf8c9dec	-1.0985694
94	0xc01d48a1	-2.457558
95	0xc07b8b3d	-3.9303734
96	0x3f205a56	0.6263784
97	0xc02c2502	-2.6897588
98	0xc08354a9	-4.1040845
99	0x3dd545ce	0.10413705
100	0xbdec3038	-0.115326345
101	0xbe9d793a	-0.3075655
102	0x3f8f737c	1.1207118
103	0x3f6b19fb	0.9183652
104	0x3f1099ed	0.5648487
105	0x3e906ba4	0.28207123
106	0x3f143fca	0.57909834
107	0x3f3b626c	0.73197055
108	0xbf988470	-1.1915417
109	0xbff3b322	-1.9039042
110	0xbfa526a8	-1.2902422
111	0xbe450e85	-0.1924382
112	0x3dec1457	0.11527317
113	0xbef4bbf3	-0.47799644
114	0x3e76b802	0.24093631
115	0x3f5bc2b8	0.8584399
116	0x3f7e6dc9	0.9938627
117	0x3dadf650	0.08494246
118	0xc0086372	-2.1310697
119	0xbe8f9598	-0.28043818
120	0x3ff5688f	1.9172534
121	0xbeddbab4	-0.43306506
122	0xbf82b3d0	-1.0211124
123	0x40359973	2.8374908
124	0x3ee5fb27	0.44918177
125	0xbfa998b3	-1.3249725
126	0x3fb47fd1	1.4101506
127	0x3f8ce935	1.1008669
128	0x3f9e2374	1.235457
129	0xbdb43a57	-0.0880019
130	0xbeae780c	-0.34075963
131	0x3f604ac6	0.87614095
132	0xbe3c6c7d	-0.1840076
133	0x3f144a07	0.57925457
134	0x3fb87a3f	1.4412307
135	0xbf0a06b5	-0.53916484
136	0xbfdb58db	-1.7136492
137	0x3f5c09ae	0.8595227
138	0xbfc22af5	-1.516936
139	0xbe816538	-0.25272536
140	0x3f8ec68f	1.1154345
141	0x3de7c5ba	0.1131701
142	0xbf7ca503	-0.9868929
143	0xbf696c01	-0.91180426
144	0x3f144bd8	0.5792823
145	0x3fa7165a	1.3053696
146	0x400f92b7	2.2433298
147	0xbfeab9ae	-1.8337915
148	0x3f3f4458	0.7471366
149	0xbf0ae2d8	-0.54252386
150	0x3ea8afb3	0.32946548
151	0xbfe8c962	-1.8186457
152	0xc04adf9e	-3.1698985
153	0x4014f19a	2.3272462
154	0x3fc6bdc9	1.5526668
155	0x3f888c4d	1.0667816
156	0xc0454727	-3.0824678
157	0xbff48192	-1.9102042
158	0x3f97990a	1.1843579
159	0xbf077f6f	-0.52928823
160	0x3f9b7242	1.2144244
161	0x3c799471	0.015233145
162	0x3fd2df17	1.6474332
163	0x3ff4d028	1.9126024
164	0x3f635b59	0.8881126
165	0x3f720b61	0.9454861
166	0x3e27cc75	0.16386588
167	0xbfa3b0f5	-1.2788378
168	0x3ce5248c	0.027971528
169	0xbf985505	-1.1900946
170	0xc06c0f82	-3.6884465
171	0xc00f5884	-2.2397776
172	0xbfe7d409	-1.8111583
173	0xbb970dcd	-0.0046097995
174	0xc0964f9e	-4.697219
175	0xc0b19741	-5.5497136
176	0xc03ef330	-2.983593
177	0xc080051e	-4.0006247
178	0xc099642d	-4.7934785
179	0xc06ac72e	-3.668407
180	0x3e359578	0.17732799
181	0xbfb59df7	-1.4188832
182	0xbe5d8ec2	-0.21636489
183	0xbf81283e	-1.0090406
184	0x40025b78	2.0368328
185	0x3f0e50dd	0.5559214
186	0x3f9e661a	1.2374909
187	0x3f84b509	1.0367748
188	0xbfb673aa	-1.4254048
189	0xbe553839	-0.20822228
190	0xbf536fee	-0.82592666
191	0xbfaabbc6	-1.3338554
192	0x3fdf7483	1.7457432
193	0x3f9d01df	1.2266196
194	0xbf01cd40	-0.5070381
195	0x3f301c89	0.6879354
196	0x3fbf33bb	1.4937662
197	0x3e210685	0.15725143
198	0xbf0b26f9	-0.5435634
199	0xbda0f295	-0.07858769
200	0x3f5aad2f	0.8542051
201	0x3fa630b9	1.2983619
202	0x3f9f6171	1.2451612
203	0x3f820451	1.0157567
204	0xbff5a01a	-1.9189484
205	0xbfbabc0b	-1.4588636
206	0x3d6fba56	0.058527313
207	0x3fb811db	1.4380449
208	0xbd2fbf2a	-0.042906918
209	0x3eabe7ef	0.3357539
210	0xbf6bb082	-0.92066205
211	0xbfa71aa0	-1.3055
212	0xc0003eeb	-2.0038402
213	0x3f6779ab	0.90420026
214	0xbe5ac3f2	-0.2136381
215	0xbe826947	-0.25470945
216	0x3f467dc1	0.77535635
217	0x3f985ef9	1.1903983
218	0x3edd5c30	0.43234396
219	0xbf6c53a0	-0.923151
220	0x3fc1006a	1.5078251
221	0x3f2a1b5e	0.6644801
222	0x401f315a	2.4873872
223	0xbf49598f	-0.7865228
224	0xbed2266b	-0.41044936
225	0x3feb82f5	1.839934
226	0xbf445ebb	-0.7670705
227	0xbf570b66	-0.8400177
228	0xbef62b6a	-0.48079997
229	0x3f274bb3	0.6534988
230	0xbf45a0c8	-0.7719846
231	0xbf3fa661	-0.7486325
232	0xbee16b3c	-0.44027126
233	0xbf1d1950	-0.6136675
234	0x3efff031	0.4998794
235	0xbfefa323	-1.872166
236	0x3f62584c	0.8841598
237	0xc023d826	-2.5600677
238	0xc029ecef	-2.6550863
239	0xbfe5e17e	-1.795944
240	0x3fe49e5f	1.7860831
241	0xbfb26e32	-1.3939879
242	0xbefe40d4	-0.49658835
243	0xbd8e0ad6	-0.069356605
244	0x3d9ee8a9	0.0775922
245	0x3fa17c20	1.2616005
246	0x3d8a4d68	0.06753045
247	0x3f3544f8	0.7080836
248	0x3f659f0d	0.8969582
249	0xbfd3380e	-1.6501482
250	0xbfa4bef5	-1.2870775
251	0xbf6ed147	-0.9328808
252	0xbf5eb79e	-0.8699893
253	0xbf0dc941	-0.55385214
254	0x3f2fb1a5	0.6863044
255	0x3f4a21d9	0.789579

layer1.1.bn1.weight f4 [16]
0	0x3ff8a3fd	1.9425045
1	0x3fb8e855	1.4445902
2	0x3fec9e93	1.8485893
3	0x4005a2ad	2.088054
4	0x3ff667df	1.9250449
5	0x3ffcd987	1.9753884
6	0x3fe3bb68	1.7791567
7	0x401288dc	2.2896032
8	0x3fce1e74	1.6103044
9	0x403a53b0	2.9113579
10	0x3fd67a59	1.6756088
11	0x4005dc2f	2.091564
12	0x40086045	2.1308758
13	0x40342446	2.814714
14	0x40076cbc	2.1160116
15	0x401b22bf	2.4239957

layer1.1.bn1.bias f4 [16]
0	0xbf798b74	-0.97478414
1	0x3f549ce7	0.83051914
2	0xbf9bd773	-1.2175125
3	0xbeff50d3	-0.4986635
4	0xbf84494f	-1.0334872
5	0xbecd7b88	-0.4013331
6	0xbfb2a4e9	-1.3956577
7	0xbfe1d016	-1.7641628
8	0xbf0afa92	-0.5428859
9	0x3e860d4f	0.2618203
10	0xbe7a9815	-0.24472077
11	0x3f85d6fd	1.0456234
12	0xbf87479e	-1.0568731
13	0xbf82ea13	-1.0227684
14	0xbf183d4a	-0.5946852
15	0xbf778a82	-0.9669572

layer1.1.bn1.running_mean f4 [16]
0	0xc0f12614	-7.535898
1	0xc10f5f3e	-8.9607525
2	0x42d82e11	108.08997
3	0xc26d1c0e	-59.277397
4	0xc08cf145	-4.404452
5	0xc1f518bd	-30.63708
6	0xc2c93877	-100.61028
7	0xc197b348	-18.96254
8	0xc15b395f	-13.701507
9	0xc2b389e1	-89.769295
10	0xc29f643c	-79.69577
11	0xc227d606	-41.959007
12	0xc2e6379c	-115.10861
13	0xc2a95da9	-84.68293
14	0xc250dbc6	-52.214622
15	0xc23b2051	-46.78156

layer1.1.bn1.running_var f4 [16]
0	0x4586b674	4310.8066
1	0x4567bd7d	3707.843
2	0x4539d1f2	2973.1216
3	0x45af7a58	5615.293
4	0x450d4249	2260.1428
5	0x45143ae5	2371.681
6	0x4549d411	3229.2542
7	0x454c32a9	3267.1663
8	0x45a5e8cb	5309.099
9	0x459fc348	5112.41
10	0x45827561	4174.6724
11	0x455f6a43	3574.6414
12	0x45b20ea1	5697.8286
13	0x45c8c177	6424.183
14	0x45cb1869	6499.0513
15	0x45ae334c	5574.412

layer1.1.conv2.weight f4 [16, 16, 3, 3]
0	0x4014336d	2.3156388
1	0x3ff28f6b	1.8950018
2	0x3f878755	1.0588175
3	0x3fe0a905	1.7551581
4	0x3ffc5590	1.9713612
5	0x3f3d55eb	0.73959225
6	0xbd2f41d3	-0.042787384
7	0x4006edc1	2.1082613
8	0x3f46bd8b	0.7763297
9	0xbf795849	-0.9740034
10	0xbf5506f9	-0.83213764
11	0xbece69cf	-0.403151
12	0x3eb7ec41	0.35922435
13	0xbe34f069	-0.17669834
14	0x3f965dc4	1.1747365
15	0x3f6f2978	0.9342265
16	0xbc394705	-0.011308436
17	0xbce744b2	-0.028230999
18	0xbf757961	-0.95888335
19	0x3dbba681	0.091626175
20	0x3f5482f9	0.8301235
21	0xc001edd6	-2.0301414
22	0xc047ddd4	-3.1229143
23	0xbff225c3	-1.8917774
24	0xbf94f151	-1.1636144
25	0xc00b0dfc	-2.1727285
26	0xbfe5f80c	-1.7966323
27	0xbf8d3d52	-1.1034338
28	0x3f652274	0.89505696
29	0x405aeb16	3.4205985
30	0xbfe3ac47	-1.778695
31	0xc002c6ac	-2.043376
32	0x3ef767e3	0.48321447
33	0xbf759800	-0.9593506
34	0xbfdff7f8	-1.7497549
35	0xbf02f875	-0.51160365
36	0x3e4cb4f6	0.19990906
37	0xc00a33a0	-2.159401
38	0xbf6e8ad2	-0.93180573
39	0x3f802d3d	1.0013806
40	0xbfa1ccbc	-1.2640605
41	0x3e990f98	0.2989471
42	0xbe8b038f	-0.27151152
43	0xbfdc3a55	-1.7205302
44	0xbcfe83da	-0.031068731
45	0xbf389bd4	-0.72112775
46	0xbf95cdf4	-1.1703477
47	0x3f058db3	0.5216934
48	0x3e4da06e	0.2008073
49	0xbf487192	-0.78298295
50	0xbf72e302	-0.94877636
51	0x3f18cb00	0.59684753
52	0x3da5d396	0.080969974
53	0x3f8b939d	1.0904423
54	0xbfcf49e3	-1.6194423
55	0xc07e757f	-3.9759214
56	0xc019f95f	-2.4058454
57	0xbfa5f5a3	-1.2965587
58	0xc010fe2c	-2.2655134
59	0xbfe86bb8	-1.8157873
60	0xbe12759e	-0.1430268
61	0xc00d0a5a	-2.2037568
62	0xbfc78edf	-1.5590476
63	0x3e26e9cb	0.16300122
64	0x3f99d319	1.2017547
65	0x400cf16e	2.2022357
66	0xb70c44be	-8.360656e-06
67	0xbfbdf5ac	-1.4840598
68	0xbd0453a6	-0.032306336
69	0x402f9925	2.7437222
70	0xbc94f472	-0.018182967
71	0x3eadf153	0.33973178
72	0x3f08e60f	0.5347604
73	0x3c564f27	0.013080395
74	0x3fda9f31	1.7079831
75	0x3eaf383e	0.34222597
76	0x3f56f2ba	0.8396412
77	0x3fd60297	1.671954
78	0xbd252fb5	-0.0403287
79	0x3f6f4393	0.93462485
80	0x3e806381	0.25075915
81	0xbfca2a7a	-1.5794213
82	0xbea175d7	-0.31535217
83	0x3fb4aaf8	1.4114676
84	0xc024aca1	-2.5730364
85	0xc06e4dc3	-3.7234962
86	0xbf914aa1	-1.13509
87	0x3fee0901	1.8596498
88	0xbf84d246	-1.037667
89	0xbe9b2333	-0.30300292
90	0xbffccc22	-1.9749796
91	0xbe606f45	-0.21917446
92	0x3f00c64d	0.5030258
93	0xbf832c42	-1.0247881
94	0x3d844ea6	0.064603135
95	0xbf38fdaa	-0.7226206
96	0x3e8e9097	0.27844688
97	0x3e66b3b6	0.22529492
98	0x3e683f8b	0.2268049
99	0xbebda05f	-0.37036416
100	0x3ec40ac2	0.38289458
101	0xbf24592b	-0.6419856
102	0xbfa94e64	-1.3227048
103	0xbf3b9afc	-0.7328336
104	0xbf0e4ec7	-0.55588955
105	0x3f84ef02	1.0385439
106	0x3f87e96e	1.0618112
107	0x3ff58c11	1.918337
108	0x3f9f9cb1	1.2469693
109	0x40222830	2.5337029
110	0x401cb51b	2.4485538
111	0x3e63c491	0.22242953
112	0x3f621654	0.8831532
113	0x3f9695c0	1.176445
114	0x3dcaadde	0.09896444
115	0x3d390c00	0.04517746
116	0x3d9935ae	0.07480942
117	0x3f40b4ae	0.75275695
118	0xbf2e28a8	-0.68030787
119	0xbf643eab	-0.89158124
120	0x401a4d60	2.4109726
121	0x3f11a3d3	0.568906
122	0xbfe42368	-1.7823305
123	0x3f121c3b	0.57074326
124	0x3f91803d	1.136726
125	0x3c2672ee	0.010159237
126	0xc045254d	-3.0804017
127	0xc0145ceb	-2.3181713
128	0x3d551262	0.052019484
129	0xc01185d9	-2.2737944
130	0xc03f60c6	-2.9902816
131	0xc01bfd76	-2.437345
132	0xbe4c961c	-0.19979137
133	0xc03a6150	-2.9121895
134	0xc074eb3f	-3.8268583
135	0xbf33bbf6	-0.7020868
136	0x3fd1a07c	1.6377101
137	0x3ec67947	0.38764402
138	0x3dc43af3	0.09581556
139	0x40033b93	2.0505111
140	0x3fe86f44	1.8158956
141	0x3f6a988f	0.91639036
142	0x3f634d85	0.8879016
143	0x3e2cd93c	0.16879743
144	0x3fa3a715	1.2785364
145	0xbf927ff8	-1.1445303
146	0xbf3102b7	-0.6914477
147	0xbebaba18	-0.36470103
148	0xbfeb861d	-1.8400303
149	0xbff9868d	-1.9494187
150	0xbf8f671a	-1.1203339
151	0xbdb2b328	-0.087255776
152	0x3fed002a	1.8515675
153	0x3f474547	0.77840084
154	0x3f725290	0.9465723
155	0x3f5bbb9e	0.85833156
156	0xbe1f1a6a	-0.1553742
157	0xbf83b347	-1.0289086
158	0xc032b80a	-2.7924829
159	0xbf9a7236	-1.2066104
160	0xbbd2bd52	-0.00643126
161	0x402c5bfa	2.6931138
162	0x400c90c4	2.1963358
163	0x3f206e9c	0.62668777
164	0x3f0f762f	0.5603971
165	0xbf2b1747	-0.66832393
166	0xbe46877f	-0.19387625
167	0xbff83594	-1.9391351
168	0x3ebf710c	0.37390935
169	0xbebde710	-0.3709035
170	0xc05530c5	-3.3311017
171	0x3fa7eb61	1.3118707
172	0x3f00fb20	0.50383186
173	0xbe534470	-0.20631576
174	0xbee90ce2	-0.4551764
175	0xc04e79da	-3.2261872
176	0xc097bcb3	-4.7417846
177	0x3fb959fc	1.4480586
178	0x3fd304fb	1.6485895
179	0x400ab2b2	2.1671567
180	0x3e8e517e	0.2779655
181	0xbfcaa93e	-1.5832899
182	0x3f9f505f	1.2446402
183	0xbe143f00	-0.14477158
184	0xbe584290	-0.21119142
185	0xbfb6f3e2	-1.4293177
186	0xbe913523	-0.28360853
187	0xbfb9a499	-1.4503356
188	0xbf5bf703	-0.85923785
189	0x3fba40ec	1.4551063
190	0xc01d3f02	-2.4569707
191	0xbf3e6ef5	-0.74388057
192	0xc008c1fe	-2.1368403
193	0x3f52b8d1	0.8231326
194	0xbf957673	-1.1676773
195	0x3f69a616	0.9126905
196	0xbfbdc9d9	-1.4827224
197	0xbfcfeb57	-1.6243695
198	0x3f6b4299	0.91898495
199	0x3f1c53d9	0.6106544
200	0xbed9e5eb	-0.42558226
201	0x3f82e9d1	1.0227605
202	0xc00557e2	-2.083489
203	0x3f5a767e	0.85337055
204	0x3f3fb97a	0.7489239
205	0xbe81841e	-0.2529611
206	0x3f392012	0.7231456
207	0xc08e15f6	-4.440181
208	0xc0390702	-2.8910527
209	0xbf618d4d	-0.8810623
210	0xbd886be6	-0.06661205
211	0x3fd43365	1.6578184
212	0x3f48c03c	0.78418326
213	0xbf53b4e0	-0.8269787
214	0xbebbc35e	-0.3667249
215	0xbe9d3916	-0.30707616
216	0x3f2cf52e	0.67561615
217	0xbfd53106	-1.6655586
218	0xbfcf86c2	-1.6213
219	0xbfa2dc5a	-1.2723496
220	0xbf575177	-0.8410868
221	0xbf9bb27d	-1.2163845
222	0x3faef0f3	1.3667282
223	0xbf4bda02	-0.7962953
224	0xc02edec8	-2.7323475
225	0xbf5be7c2	-0.8590051
226	0x3ffaaaa0	1.9583321
227	0x3ec18c45	0.3780233
228	0xbe7dda5b	-0.24790327
229	0xc0628143	-3.5391395
230	0xc00125bc	-2.0179281
231	0xbfb13667	-1.3844727
232	0x4005a4ff	2.0881956
233	0x3f0f4bea	0.5597521
234	0x3eb69a49	0.35664585
235	0x3fc7fc49	1.5623866
236	0x3f987dd9	1.1913406
237	0x3f42ae5d	0.7604731
238	0xbf3b36ab	-0.7313029
239	0xbfac00c5	-1.3437735
240	0x3f4c8194	0.7988522
241	0xbf7f42ca	-0.9971129
242	0xbf0ace88	-0.5422139
243	0xc0119cc1	-2.2751925
244	0xc01520b1	-2.3301203
245	0x3f70ad7a	0.94014704
246	0xbe7df6c1	-0.2480116
247	0x403a1819	2.9077208
248	0x3ef6c2a6	0.4819538
249	0xbec5d16d	-0.38636342
250	0xbf977448	-1.1832361
251	0x3ef39793	0.4757658
252	0xbee4e975	-0.44709364
253	0xbe38b115	-0.18036301
254	0x3f71664f	0.94296736
255	0xbfce819b	-1.6133302

layer1.1.bn2.weight f4 [16]
0	0x40099906	2.1499648
1	0x40178dff	2.3680418
2	0x3f97b4f5	1.1852099
3	0x401f3b49	2.4879935
4	0x400e78f2	2.226132
5	0x3f9e1670	1.2350597
6	0x3fe61a67	1.7976807
7	0x404816bb	3.1263874
8	0x4000205f	2.0019758
9	0x3fade407	1.3585213
10	0x3fd94aee	1.6975992
11	0x3f4d700f	0.8024911
12	0x3f571dd5	0.84029895
13	0x3fdbb6ff	1.7165221
14	0x3f0a847c	0.54108405
15	0x3f8c4951	1.0959874

layer1.1.bn2.bias f4 [16]
0	0xbe85dfbe	-0.26147264
1	0xbfe6b05b	-1.802257
2	0xbe1cd7ef	-0.15316747
3	0x3fe2fa51	1.773264
4	0xbe9b232e	-0.30300277
5	0x3e3971ef	0.18109868
6	0xbd9d5898	-0.076829135
7	0x3f3c987a	0.7367016
8	0xc040ac39	-3.0105116
9	0xbf5cae1b	-0.86203164
10	0xbf68b4ee	-0.90901077
11	0xbf11aa73	-0.5690071
12	0x3f42ed56	0.76143396
13	0x3e43c0e4	0.1911655
14	0x3e709029	0.23492493
15	0xbeb97b71	-0.3622699

layer1.1.bn2.running_mean f4 [16]
0	0xc17ce91c	-15.806911
1	0xc1b6208d	-22.765894
2	0x40e39cda	7.112897
3	0xc1e3bbde	-28.466732
4	0xc20de40f	-35.472713
5	0x40b8ad0c	5.771124
6	0xc11af0c9	-9.683785
7	0x415a6adb	13.651088
8	0x3f518c13	0.8185436
9	0xc09bc417	-4.8676867
10	0xc1b7ce57	-22.975752
11	0xc1757ab3	-15.342456
12	0xc1c73893	-24.902624
13	0xc18c7701	-17.558107
14	0x41e06861	28.050966
15	0x40adfc8f	5.43708

layer1.1.bn2.running_var f4 [16]
0	0x43c2b819	389.43826
1	0x43d51384	426.15247
2	0x43ce835b	413.0262
3	0x43efa433	479.2828
4	0x440bdb86	559.43005
5	0x440236e7	520.85785
6	0x44524171	841.0225
7	0x4429de05	679.46906
8	0x43a86e30	336.86084
9	0x439e3599	316.41873
10	0x441dac10	630.6885
11	0x43a6b289	333.3948
12	0x440a34c2	552.82434
13	0x4427766c	669.85034
14	0x43d48570	425.04248
15	0x43988d1a	305.10236

layer2.0.conv1.weight f4 [32, 16, 3, 3]
0	0x3f79a50f	0.97517484
1	0xbf92c568	-1.1466494
2	0xbfe7b4f3	-1.8102096
3	0x3eef1b2e	0.46700424
4	0xc0091e13	-2.1424606
5	0xbfa4fd53	-1.2889808
6	0xbf678662	-0.90439427
7	0xc01076b1	-2.2572443
8	0xbf0449e3	-0.5167524
9	0x3fa0a456	1.2550151
10	0x3f19e343	0.601124
11	0x3e1d33eb	0.15351836
12	0x3fd54533	1.6661743
13	0x3fed4af1	1.8538495
14	0xbf3e5093	-0.74341697
15	0xc02295dc	-2.5403967
16	0x40127420	2.2883377
17	0x3f3b3033	0.7312042
18	0xbec0e307	-0.37673208
19	0x3feda721	1.8566629
20	0x3fec8e57	1.8480939
21	0x406a3b6e	3.6598773
22	0x3fc6a634	1.5519471
23	0x3fa68f42	1.3012469
24	0x3f44fa14	0.7694409
25	0x3dc00289	0.093754835
26	0xbfc7064a	-1.5548794
27	0x3e503a78	0.20334804
28	0x40788a48	3.88344
29	0x4067bc97	3.6208856
30	0x4086bf65	4.2108636
31	0x4036dad3	2.857106
32	0xbeddfd07	-0.43357107
33	0x400d92b3	2.2120788
34	0x3f28f909	0.66005
35	0xbfb604a6	-1.4220169
36	0x3f8217e6	1.0163543
37	0x3f1a8682	0.6036149
38	0xbffd067e	-1.9767606
39	0xbf9ef88c	-1.24196
40	0xc017060e	-2.3597445
41	0x3f16d54b	0.5891921
42	0x3eb163ab	0.34646353
43	0x400c8e91	2.1962016
44	0x3fdbb8b0	1.7165737
45	0xbfdecba1	-1.7405893
46	0x3f9391fe	1.1528928
47	0x3fd773b0	1.683218
48	0x3e96fd62	0.2949019
49	0x40108e88	2.2586994
50	0x3fd11730	1.6335201
51	0x3ecd8324	0.40139115
52	0x3f26c0b0	0.6513777
53	0xbe31deda	-0.17370167
54	0xc0235eb5	-2.5526555
55	0xc057f6ba	-3.374434
56	0xbfeab97d	-1.8337857
57	0xbfbfea69	-1.4993411
58	0x3d505c25	0.050869126
59	0xbfbcbaf6	-1.4744556
60	0x3fae56df	1.3620261
61	0xbf2cc12e	-0.6748227
62	0xc027d6c3	-2.622483
63	0x3d8d2d2e	0.06893383
64	0x401249ce	2.2857547
65	0x401892c7	2.3839586
66	0x400c96af	2.196697
67	0x3fd5da8d	1.6707321
68	0xbf10bde4	-0.5653975
69	0xbf70bd16	-0.9403852
70	0xc0058279	-2.0860884
71	0xc00769ee	-2.1158404
72	0x3fdce2f8	1.7256765
73	0x3f74c384	0.95610833
74	0x3f1a76da	0.60337603
75	0xbd996972	-0.07490815
76	0xbf21028d	-0.6289452
77	0xbf87f7fd	-1.0622555
78	0xbec9c4ef	-0.3940806
79	0x3ec7dea8	0.3903706
80	0xbf07f34d	-0.5310562
81	0xbefe6ea6	-0.49693793
82	0x3f83084d	1.0236908
83	0x3d80c08c	0.062867254
84	0xbed2f699	-0.41203764
85	0xbf863905	-1.0486151
86	0x3f510bb5	0.8165849
87	0xbf613158	-0.8796592
88	0x3f9ce289	1.2256633
89	0x3fdeaea2	1.7397044
90	0x3f4fee42	0.8122293
91	0x3e43ce19	0.19121589
92	0xbf3b06a7	-0.73057026
93	0xbf83c080	-1.0293121
94	0xbff78158	-1.9336348
95	0x3f9c4800	1.2209473
96	0xbfc42a04	-1.5325322
97	0x3eafbebf	0.34325215
98	0x3cdbabc2	0.026815299
99	0x3f381de2	0.719206
100	0x3edfeae2	0.4373389
101	0xbfff258c	-1.9933333
102	0x3f4489d2	0.767728
103	0x3e20f0b9	0.15716828
104	0xbe39109d	-0.18072744
105	0x3e91b277	0.2845647
106	0xbd2e3818	-0.042533964
107	0xbcae8f9e	-0.021308716
108	0x3eb97e22	0.36229044
109	0x3eacd8ab	0.33759055
110	0xbf337cda	-0.70112383
111	0xbf60fabd	-0.87882596
112	0x3f2ecb57	0.6827902
113	0x3ff8bde0	1.9432945
114	0x3fa80cd3	1.3128914
115	0x401bc492	2.4338727
116	0x3ffb77ba	1.9645913
117	0x3fb75749	1.4323512
118	0xbfd6fccc	-1.6795897
119	0xc065a45a	-3.5881562
120	0xbfb46b84	-1.4095311
121	0xbfb37621	-1.4020425
122	0xbfcfa6fc	-1.6222835
123	0xc010984f	-2.2592962
124	0xbd9d3591	-0.076762326
125	0x3fc82b85	1.5638281
126	0x3dad2583	0.084544204
127	0x3ee971bd	0.45594588
128	0x3f9f234d	1.2432648
129	0xbedba2e0	-0.428977
130	0x3e3df222	0.18549398
131	0x3f78bef1	0.97166353
132	0xbfcd81a1	-1.6055185
133	0x3e48db09	0.19614805
134	0xbe628524	-0.22121102
135	0xbfec9f0b	-1.8486036
136	0xbf78b7f2	-0.9715568
137	0xbe1794cf	-0.1480286
138	0x3f933811	1.1501485
139	0x3fb70f34	1.4301515
140	0x3f1dcefd	0.61643964
141	0xbd3d7577	-0.0462546
142	0xbf0a5999	-0.54042965
143	0xbfa3a97b	-1.2786096
144	0xbf6c2bc0	-0.9225426
145	0x3f398689	0.7247091
146	0xbf674700	-0.9034271
147	0xbfcc0bd3	-1.5941108
148	0x3fc3f453	1.5308937
149	0xbfed01d2	-1.851618
150	0xbf4f9992	-0.81093705
151	0x3f80a69b	1.0050844
152	0xbf5a6b48	-0.8531995
153	0x3eee1cb0	0.46506262
154	0x3f0be091	0.54639536
155	0x3f71738c	0.94316936
156	0x3d5c8afb	0.05384348
157	0x3e1d34c3	0.15352158
158	0x3f9429b7	1.157523
159	0xbd893ddc	-0.06701252
160	0xbf0ebb8c	-0.55754924
161	0x3e8d0337	0.27541515
162	0xbff48b48	-1.9105005
163	0xbed01913	-0.4064413
164	0x3f595f69	0.8491121
165	0xbf149d38	-0.58052397
166	0xbd1ec931	-0.03876609
167	0x3ea4c5c1	0.32182124
168	0xbd678926	-0.05652728
169	0xbf4e08eb	-0.8048236
170	0xbeb33166	-0.34998626
171	0x3fe8bf04	1.8183293
172	0x3eae3142	0.34021956
173	0x3f1aac8f	0.60419554
174	0x3f9585d8	1.1681471
175	0xbfe0c121	-1.7558938
176	0x3f274e0c	0.65353465
177	0x40138166	2.3047729
178	0xc0037127	-2.0537813
179	0x3ffaddae	1.9598901
180	0xbf8f320c	-1.1187148
181	0x3fd5ba70	1.6697521
182	0xbfeac58f	-1.834154
183	0xc02d733c	-2.7101583
184	0x403c8215	2.9454396
185	0xc07ae31d	-3.920112
186	0xc00f7d67	-2.242029
187	0x4008cd8d	2.1375458
188	0xbff6c3f4	-1.927855
189	0xbea83755	-0.32854715
190	0xbe93aa91	-0.2884107
191	0xbf33f322	-0.70292866
192	0x3fafc273	1.3731216
193	0xbf0a6c1f	-0.5407123
194	0x3dca7862	0.098862424
195	0x3f1f91a7	0.6233162
196	0xbe8c3e53	-0.273913
197	0xbecca590	-0.39970064
198	0x3d0e0693	0.03467424
199	0xbf0bbb4d	-0.54582673
200	0xbecacf2b	-0.39611182
201	0x3f6ac43e	0.9170569
202	0x3f0e38a7	0.55555195
203	0x3cf35678	0.029704317
204	0x3e9acd0b	0.3023456
205	0xbcdccc42	-0.026952866
206	0x3c340b38	0.010989003
207	0xc04da469	-3.2131598
208	0x40806c10	4.013191
209	0xc051ee96	-3.2801871
210	0xc07bf514	-3.9368334
211	0x4078899d	3.8833992
212	0xc0801fad	-4.0038667
213	0xbff1b695	-1.8883845
214	0x3f9ec203	1.2402958
215	0xbf8d7529	-1.105138
216	0xbf64435c	-0.8916528
217	0x3f4bd3a1	0.79619795
218	0xbf2054bd	-0.626293
219	0xbeea04e2	-0.4570685
220	0x3fd9666c	1.6984382
221	0xbfa62eb0	-1.2982998
222	0x3e67c4a3	0.22633605
223	0x3f57d24a	0.8430525
224	0xbf862c91	-1.048235
225	0xbfdb0bbe	-1.7112958
226	0x3ff162b1	1.8858243
227	0xc0245869	-2.5678961
228	0xc00450ef	-2.0674398
229	0x40167e30	2.3514519
230	0xc01d54b0	-2.458294
231	0xbfeab4d4	-1.8336434
232	0x3faa2066	1.3291137
233	0xbf5903f6	-0.8477167
234	0x3f0091ad	0.50222284
235	0xbe807549	-0.2508948
236	0x3eaceeba	0.33775884
237	0x3f0301ae	0.5117444
238	0x3ecde17d	0.40211096
239	0xbed28402	-0.4111634
240	0xbd98973c	-0.07450721
241	0xbd3242ca	-0.043520726
242	0xbea03add	-0.3129491
243	0xbf3db5c4	-0.7410548
244	0x3f0f08c1	0.5587273
245	0xbeac6449	-0.33670262
246	0xbe368744	-0.17825037
247	0x3f02a184	0.51027703
248	0xbf2bb10a	-0.67067015
249	0xbc99c519	-0.018770741
250	0x3e2faa9e	0.17154929
251	0xbf86c2db	-1.0528215
252	0x3fbf6847	1.4953698
253	0x3e71cf3a	0.23614207
254	0x3f677f12	0.9042827
255	0x3f25ff14	0.64842343

layer2.0.bn1.weight f4 [32]
0	0x40036300	2.0529175
1	0x40488348	3.1330128
2	0x40049317	2.0714777
3	0x3fe4ffaa	1.7890522
4	0x3ffaa50a	1.9581616
5	0x3fa0fd38	1.2577276
6	0x400fd592	2.2474103
7	0x3ff7fc9f	1.9373969
8	0x3ff56e62	1.9174311
9	0x3fd62b2a	1.6731923
10	0x3fd674a0	1.6754341
11	0x400f3ded	2.2381546
12	0x4018c733	2.3871582
13	0x3ff2a7ce	1.895746
14	0x402cf07b	2.7021778
15	0x40367512	2.8508954
16	0x400f5761	2.2397082
17	0x3ff7148b	1.9303144
18	0x3ffae073	1.9599746
19	0x3fddcacd	1.7327515
20	0x40137925	2.304269
21	0x3ff90674	1.9455094
22	0x40202a4b	2.5025814
23	0x40131869	2.2983649
24	0x400757a1	2.1147234
25	0x400accb0	2.1687431
26	0x40141db2	2.3143125
27	0x40148d8e	2.3211398
28	0x40157985	2.335542
29	0x4001a6c8	2.0258045
30	0x3f91a4cd	1.1378418
31	0x3fd547d3	1.6662544

layer2.0.bn1.bias f4 [32]
0	0xbf7a00a2	-0.97657216
1	0xbf7a49d7	-0.9776892
2	0xbf784d77	-0.969932
3	0xbed37b1b	-0.4130486
4	0xbf4d69fe	-0.80239856
5	0x3fa1cb49	1.2640163
6	0xbf924bc7	-1.1429375
7	0xbf50db0c	-0.8158424
8	0xbf34d96a	-0.7064425
9	0xbf89bffc	-1.0761714
10	0xbf24d96d	-0.64394265
11	0xbfb096ef	-1.3796061
12	0xbf695f17	-0.9116072
13	0xbf08da36	-0.53457963
14	0xbe6c91d8	-0.2310251
15	0xbee55823	-0.44793805
16	0xbeb640c3	-0.35596284
17	0xbf0c2eb9	-0.54758793
18	0xbed2394c	-0.4105934
19	0xbf49d2d0	-0.788373
20	0xbeea2708	-0.45732903
21	0xbf8b2840	-1.0871658
22	0xbf945c47	-1.1590661
23	0xbf70eb36	-0.94108903
24	0xbf7f7980	-0.9979477
25	0x3ed22308	0.41042352
26	0xbfb79ff0	-1.4345684
27	0xbeae869f	-0.34087083
28	0xbf1b5008	-0.60668993
29	0xbee84580	-0.45365524
30	0x3e644c44	0.22294718
31	0xbf5fb01f	-0.87378114

layer2.0.bn1.running_mean f4 [32]
0	0x42163c19	37.55869
1	0xc25830c5	-54.047626
2	0xc254773d	-53.116444
3	0xc21169a8	-36.35318
4	0xc2b38448	-89.75836
5	0xc1a56010	-20.671906
6	0xc30773d0	-135.4524
7	0xc27b7833	-62.867382
8	0x40d9689e	6.7940207
9	0xc20e7b22	-35.620247
10	0xc2a358a2	-81.67311
11	0xc2d55a08	-106.67584
12	0xc18edd81	-17.858156
13	0xc1efe658	-29.987473
14	0xc1798e70	-15.597275
15	0xc26bfcc6	-58.99685
16	0x42119c9d	36.402943
17	0xc16b2c43	-14.698306
18	0xc2420894	-48.508377
19	0x408cba04	4.397707
20	0xc2a237b8	-81.108826
21	0x426c4e7b	59.07664
22	0xc2865c82	-67.18068
23	0xc2992354	-76.569
24	0xc2c38a40	-97.77002
25	0xc2486fcc	-50.109177
26	0xc219c994	-38.446854
27	0xc191e73c	-18.237907
28	0xc20b3763	-34.80409
29	0xc0ccd549	-6.401036
30	0xc2da8b2f	-109.27184
31	0x42a132b1	80.59901

layer2.0.bn1.running_var f4 [32]
0	0x4558feb0	3471.918
1	0x4643fa5f	12542.593
2	0x45925c8a	4683.5674
3	0x45f65ef4	7883.869
4	0x45b8e069	5916.0513
5	0x459b68d4	4973.1035
6	0x459f678e	5100.9443
7	0x45836603	4204.7515
8	0x4566ff33	3695.95
9	0x45009ffd	2057.9993
10	0x456d292c	3794.5732
11	0x45484d44	3204.829
12	0x46303006	11276.006
13	0x462f2cd3	11211.206
14	0x463d542c	12117.043
15	0x45f399a0	7795.203
16	0x45a62988	5317.1914
17	0x45fecc86	8153.5654
18	0x4617df69	9719.853
19	0x4535ddc9	2909.8616
20	0x45908c85	4625.565
21	0x4566bdc7	3691.861
22	0x458b75c4	4462.7207
23	0x458dff20	4543.8906
24	0x45965076	4810.0576
25	0x45e30e21	7265.766
26	0x45917c86	4655.5654
27	0x45a2dd12	5211.634
28	0x461c3d17	9999.272
29	0x45a0f2b8	5150.34
30	0x453e024e	3040.144
31	0x45797534	3991.3252
